Experts/Generative/pretrained_models/jacquard/GGCNND_Jacquard.pth (torch, 256346 bytes, 16 tensors)

conv1.weight f4 [32, 1, 9, 9]
0.19989404 0.097384095 -0.07590583 0.2927071 0.16080026 0.15442719 0.05358728 0.09341684
0.1081402 0.17845696 -0.0002094798 -0.23925295 0.17879559 0.021046104 0.014679006 -0.046307217
-0.098350435 -0.015766824 0.014226323 -0.14061134 -0.34728575 0.004028234 -0.13431044 -0.12115284
-0.1518834 -0.14326213 -0.09587119 0.28937164 0.067620076 -0.06733441 0.24484554 0.109832965
0.13430932 0.07213923 0.06025194 0.16085728 0.29342684 0.002467828 -0.24557292 0.15091841
-0.017416485 0.019586999 -0.016505802 -0.044117976 0.04218477 0.28205276 0.086264424 -0.21710038
0.15091902 0.018913524 0.0070541734 -0.007872272 -0.015549193 0.038440183 0.31512463 0.021484023
-0.21721339 0.07841493 -0.05537542 -0.033001482 -0.07722482 -0.08745183 0.013233455 0.28304812
0.04368742 -0.20388813 0.057234757 -0.011430797 -0.008997174 -0.115084894 -0.05748987 0.012384573
0.42374498 0.16541897 -0.09763743 0.23854917 0.09259511 0.022621399 -0.006236805 -0.024183696
0.045878872 0.059151616 0.26289973 0.34308916 0.47568673 0.6063129 0.6734162 0.6586486
0.59084433 0.45009091 -0.10299141 0.010945963 0.15380038 0.23590714 0.45323455 0.4838237
0.440257 0.34468743 0.17669424 -0.2558174 -0.17283654 -0.05920303 -0.0005258492 0.13382526
0.21084069 0.19238095 0.049136274 -0.00077986997 -0.026441079 -0.01943093 0.008192538 0.16393067
0.15742142 0.22370759 0.16339296 0.08756061 -0.03230341 0.088085584 0.13871011 0.18337332
0.17240198 0.23832387 0.2721114 0.18419915 0.052876696 0.01172272 -0.09116101 0.04524277
-0.0056208945 0.05871047 0.12573576 0.055218715 0.08127182 -0.06280055 -0.11417447 -0.1804678
-0.09382727 -0.019934347 -0.02515146 -0.061018135 -0.08970891 -0.09452916 -0.07058189 -0.17961507
-0.23371246 -0.16447565 -0.074198045 -0.08808503 -0.10172881 -0.13669881 -0.17732508 -0.12783475
-0.17083888 -0.30713654 -0.26244935 -0.22311705 -0.19804823 -0.20492828 -0.2058534 -0.23064816
-0.22939228 -0.3296042 0.76452583 0.5741472 0.4171967 0.4699556 0.41634005 0.40868074
0.35490635 0.4697343 0.5428988 0.18800302 0.042258415 -0.10977157 -0.044851694 -0.11262996
-0.04414189 -0.070862114 -0.06598352 0.07564402 -0.29628578 -0.36505038 -0.47359353 -0.3646826
-0.41476524 -0.43759555 -0.45279887 -0.43730146 -0.2862976 0.1838712 0.14583415 0.05758287
0.09461171 0.10043553 0.13313375 0.13447 0.14063306 0.21228164 -0.020631466 -0.08592847
-0.15992711 -0.088381805 -0.10173351 -0.08871652 -0.13909978 -0.07779445 -0.011948423 -0.084326014
-0.060638364 -0.108870804 -0.04329139 -0.072790585 -0.08491281 -0.06536463 -0.08275648 -0.027571095
-0.01549851 -0.06726218 -0.081829794 0.0188756 -0.018930921 0.011947823 -0.055858877 -0.07282889
0.030376717 -0.06845857 -0.06717756 -0.0629025 -0.009480593 0.001788439 -0.042398293 -0.00767293
0.019068072 0.029002 0.06878668 0.026225338 -0.0133211 0.05295972 0.027435731 0.05088691
0.07269604 0.075259194 0.1464504 -0.20105612 -0.15674685 -0.043414257 0.015854815 0.0073895236
0.08232545 0.10609367 0.27811357 0.4426681 -0.24454175 -0.17186947 -0.04531175 -0.056883633
00000000: 06b1 4c3e 5071 c73d 8474 9bbd b4dd 953e
00000010: d3a8 243e 2922 1e3e 567e 5b3d 5451 bf3d
00000020: 9c78 dd3d 6cbd 363e cea7 5bb9 bafe 74be
00000030: 3116 373e e168 ac3c 3780 703c a3ac 3dbd
00000040: f46b c9bd 6d29 81bc 8615 693c 6bfc 0fbe
00000050: 70cf b1be 47ff 833b ad88 09be fb1e f8bd
00000060: 5287 1bbe 4fb3 12be 1d58 c4bd 8528 943e
00000070: 657c 8a3d a0e6 89bd cab8 7a3e 1bf0 e03d
00000080: 6288 093e bcbd 933d bdca 763d c5b7 243e
00000090: 0b3c 963e 49bb 213b 7877 7bbe 5b8a 1a3e
000000a0: 04ad 8ebc ea74 a03c 2d37 87bc 0db5 34bd
000000b0: f0c9 2c3d 3869 903e 67ab b03d 904f 5ebe
000000c0: 848a 1a3e 89f0 9a3c b226 e73b b4fa 00bc
000000d0: 0bc2 7ebc 7473 1d3d 0458 a13e 43ff af3c
000000e0: 306d 5ebe 0298 a03d 56d1 62bd 902c 07bd
000000f0: 0c28 9ebd f219 b3bd 22d1 583c afeb 903e
00000100: 95f1 323d 0dc8 50be fe6e 6a3d 3d48 3bbc
00000110: e268 13bc a1b1 ebbd 7f7a 6bbd aae8 4a3c
00000120: 1af5 d83e 9763 293e 22f6 c7bd 3c46 743e
00000130: 81a2 bd3d 8350 b93c 1d5e ccbb e31c c6bc
00000140: 7ceb 3b3d f748 723d cb9a 863e 62a9 af3e
00000150: 368d f33e 5237 1b3f 0165 2c3f 329d 283f
00000160: 9341 173f 5172 e63e 29ed d2bd b256 333c
00000170: d97d 1d3e a491 713e 5c0e e83e bdb7 f73e
00000180: 5e69 e13e df7a b03e 56ef 343e 80fa 82be
00000190: 10fc 30be e07e 72bd 24d9 09ba 7d09 093e
000001a0: 9fe6 573e 83ff 443e 1e43 493d 3070 4cba
000001b0: f69a d8bc 9d2d 9fbc ff39 063c 71dd 273e
000001c0: 1533 213e 9a13 653e 7c50 273e fa52 b33d
000001d0: 9550 04bd 3766 b43d 060a 0e3e 37c6 3b3e
000001e0: 258a 303e 2c0b 743e 2f52 8b3e b49e 3c3e
000001f0: 3c95 583d a710 403c a0b2 babd 7c50 393d
00000200: 7b2f b8bb 647a 703d e0c0 003e 052d 623d
00000210: d771 a63d 939d 80bd 4ed4 e9bd 8dcc 38be
00000220: 8328 c0bd 5b4d a3bc 6f0a cebc 27ee 79bd
00000230: 4eb9 b7bd 8198 c1bd 3d8d 90bd 03ed 37be
00000240: 5252 6fbe 4e6c 28be 25f5 97bd ed65 b4bd
00000250: 3257 d0bd c6fa 0bbe b594 35be 1de7 02be
00000260: 63f0 2ebe 0041 9dbe c35f 86be cc78 64be
00000270: 28cd 4abe b8d8 51be 3ccb 52be 082f 6cbe
00000280: cfe5 6abe e2c1 a8be f7b7 433f 50fb 123f
00000290: ce9a d53e 059e f03e 862a d53e 9a3e d13e
000002a0: 49b6 b53e 0481 f03e 6afb 0a3f dd83 403e
000002b0: 2917 2d3d ebcf e0bd 69b6 37bd 89aa e6bd
000002c0: 20ce 34bd 2820 91bd 5e22 87bd 41eb 9a3d
000002d0: c5b2 97be e2e7 babe da7a f2be aeb7 babe
000002e0: 1c5c d4be 860c e0be 41d5 e7be fae5 dfbe
000002f0: 9995 92be bb48 3c3e 8c55 153e 04dc 6b3d
00000300: c9c3 c13d 25b1 cd3d 3754 083e 81b2 093e
00000310: 1d02 103e 5c60 593e 5203 a9bc 44fb afbd
00000320: efc3 23be 8501 b5bd a959 d0bd 02b1 b5bd
00000330: 2c70 0ebe b252 9fbd 52c3 43bc 1eb3 acbd
00000340: ef5f 78bd a8f7 debd 5052 31bd 3b13 95bd
00000350: c4e6 adbd e4dd 85bd 3b7c a9bd c7dc e1bc
00000360: 76ed 7dbc c1c0 89bd 6196 a7bd 01a1 9a3c
00000370: 0515 9bbc cdc0 433c 47cc 64bd 5027 95bd
00000380: 98d8 f83c 0234 8cbd 6394 89bd 07d3 80bd
00000390: 7d54 1bbc 0e6a ea3a d5a9 2dbd 346d fbbb
000003a0: a534 9c3c 9a95 ed3c 08e0 8c3d 85d6 d63c
000003b0: be40 5abc 4bec 583d e6c0 e03c cb6e 503d
000003c0: a9e1 943d 7e21 9a3d 18f7 153e a8e1 4dbe
000003d0: 3f82 20be 26d3 31bd f5e1 813c d123 f23b
000003e0: 3f9a a83d a347 d93d e764 8e3e 65a5 e23e
000003f0: 2769 7abe 8dfe 2fbe d098 39bd d0fe 68bd

conv1.bias f4 [32]
0.06840012 -0.13430598 0.028041407 -0.14746672 -0.35146952 0.026692381 -0.0035520834 -0.007528922
0.031206734 -0.0649869 -0.015359571 0.0053390223 -0.11871199 -0.0147803705 -0.16161227 0.030654684
-0.11761865 -0.04660128 -0.06696637 -0.21314797 0.026654636 -0.029477222 0.024348969 -0.012237034
-0.37769136 9.3701e-05 -0.06823948 -0.08506854 -0.1882941 0.060999826 -0.118243456 -0.027445681
00000000: 5d15 8c3d 8287 09be 18b7 e53c 8401 17be
00000010: d0f3 b3be fba9 da3c 12ca 68bb 2db5 f6bb
00000020: 44a5 ff3c da17 85bd b6a6 7bbc f7f2 ae3b
00000030: 461f f3bd 5e29 72bc b07d 25be 881f fb3c
00000040: 0ce2 f0bd fce0 3ebd aa25 89bd 7643 5abe
00000050: d35a da3c 377a f1bc 7d77 c73c d77d 48bc
00000060: c360 c1be 5781 c438 24c1 8bbd 6a38 aebd
00000070: 2bd0 40be f4da 793d a029 f2bd c4d5 e0bc

conv2.weight f4 [16, 32, 5, 5]
0.4033271 0.33658966 0.3370565 0.16822006 0.17986225 0.18765458 0.17117521 0.18099853
0.13135448 0.05968449 0.103988595 -0.020456832 -0.06574459 -0.09944006 -0.07270258 -0.024678793
-0.16910207 -0.1610783 -0.09500094 -0.044524956 -0.25111666 -0.32188663 -0.30151516 -0.27566123
-0.1999418 -0.5490714 -0.31486246 -0.20688485 -0.3709815 -0.6123866 -0.2118252 -0.025396185
0.02009676 -0.064873695 -0.3491654 -0.17595209 -0.063476205 0.10350881 -0.079218656 -0.27779317
-0.07599785 -0.16486657 -0.13740298 -0.17953767 -0.18357538 -0.10430365 -0.22310989 -0.2968698
-0.24751677 -0.11704044 0.2690009 0.08972596 0.06263794 0.014607258 0.33957383 0.034012485
-0.07398806 0.032436308 -0.027445462 0.17266521 -0.20209113 -0.16139315 -0.08686444 -0.05128938
0.08776529 -0.046842195 -0.038734414 0.06101836 0.02759854 0.13413428 -0.24372223 -0.22562596
-0.07228087 -0.115827 0.019376984 -0.19568284 -0.1986781 0.19059008 -0.02297942 -0.20119773
-0.31855798 0.11840426 0.30188543 0.26586875 0.051628355 0.29213592 0.26215747 0.3013052
0.1457044 0.048897624 -0.37411088 -0.06139957 -0.024196202 -0.2009524 0.034964498 -0.13350052
-0.4134438 -0.16534775 0.01827817 0.2247065 -0.12675889 -0.114720725 -0.19342577 -0.15122922
-0.044310726 -0.076125674 0.017984845 -0.028336199 -0.13612776 0.18001851 0.093205735 -0.048553403
0.11844404 0.080317594 0.2928333 0.034754682 -0.096052036 -0.16797763 -0.029610163 0.16949911
0.20915128 0.009168719 -0.17539877 -0.25028983 0.13739584 -0.16149656 -0.025624666 0.036955133
0.07780099 0.37413326 -0.2764052 0.035887785 0.103296004 0.02118054 0.16944644 -0.5449611
-0.16918896 -0.119100764 -0.09660195 0.11513855 -0.5341477 -0.105321795 0.050391983 -0.036302727
0.26601014 -0.5646281 -0.19702165 0.049870986 0.03389504 0.07787987 -0.024890665 0.055641863
-0.21350841 -0.22902808 -0.16427246 0.123563826 0.14340697 -0.00023112402 0.025390595 -0.06709879
0.045171052 0.07168764 0.068469666 -0.009217671 -0.08256604 0.07473473 0.20816582 0.16779669
-0.0005172766 -0.039573062 0.09603142 0.01449392 -0.016052695 -0.17741106 -0.31805664 -0.5139954
-0.125685 -0.12274346 -0.08655124 0.18490589 -0.39299557 -0.0388652 -0.07820956 -0.06756159
0.13866441 -0.46970835 -0.047799 0.004102736 -0.084847376 0.13495104 -0.64630234 0.0016300257
0.16607225 0.0057821283 0.13713941 -0.785949 -0.21004337 0.24323401 0.29094636 0.24413148
0.041820675 0.13784678 0.14376138 0.052959163 0.008663633 0.13943878 0.062441394 0.07546876
0.0052942764 0.070773914 0.023438783 0.03102462 0.010592021 -0.019682562 -0.026786745 0.14721149
0.27447844 0.25653043 0.21682884 0.20723216 -0.5305594 -0.21185751 -0.16729912 -0.27714708
-0.3462882 -0.37362745 -0.29335412 -0.40819335 -0.2154557 -0.44847205 -0.5403492 -0.1678017
-0.26825076 -0.11073036 -0.19036354 -0.63364553 0.12614806 -0.0048462898 -0.03356578 -0.16316141
-0.22415711 0.1888313 0.014974835 -0.04251512 -0.17169526 -0.0007395609 0.14351627 0.10089875
0.13327931 0.029090518 -0.21810083 -0.1374609 -0.3427424 -0.32555506 -0.4034012 -0.06251913
00000000: e480 ce3e 7b55 ac3e ab92 ac3e e141 2c3e
00000010: cf2d 383e 8628 403e 8e48 2f3e ae57 393e
00000020: ca81 063e b977 743d f9f7 d43d 1695 a7bc
00000030: 19a5 86bd 3ba7 cbbd 17e5 94bd 2e2b cabc
00000040: 1829 2dbe b6f1 24be da8f c2bd cd5f 36bd
00000050: 5d92 80be 53ce a4be 3260 9abe 7823 8dbe
00000060: 8bbd 4cbe f18f 0cbf a735 a1be 9fd9 53be
00000070: 4af1 bdbe 5ec5 1cbf b5e8 58be a90b d0bc
00000080: f6a1 a43c 80dc 84bd cfc5 b2be c92c 34be
00000090: d0ff 81bd 6dfc d33d 643d a2bd e83a 8ebe
000000a0: c3a4 9bbd c8d2 28be 5eb3 0cbe b9d8 37be
000000b0: 2ffb 3bbe 279d d5bd eb76 64be 52ff 97be
000000c0: 0975 7dbe e6b2 efbd 7cba 893e 3ec2 b73d
000000d0: 5248 803d 4853 6f3c 9fdc ad3e ad50 0b3d
000000e0: 0d87 97bd efdb 043d 4ed5 e0bc 26cf 303e
000000f0: faf0 4ebe 3f44 25be fce5 b1bd d014 52bd
00000100: 4abe b33d 9add 3fbd faa7 1ebd 63ee 793d
00000110: 5516 e23c 7f5a 093e 5292 79be 7e0a 67be
00000120: fe07 94bd b536 edbd 7bbc 9e3c 1561 48be
00000130: 4672 4bbe 0c2a 433e 563f bcbc c706 4ebe
00000140: 081a a3be ef7d f23d ba90 9a3e f31f 883e
00000150: 4178 533d d792 953e 8139 863e ad44 9a3e
00000160: 8933 153e e048 483d 768b bfbe 1e7e 7bbd
00000170: 1d37 c6bc 77c6 4dbe ef36 0f3d 5cb4 08be
00000180: e8ae d3be ec50 29be 1abc 953c 7619 663e
00000190: 15cd 01be b3f2 eabd 6811 46be d5db 1abe
000001a0: 2a7f 35bd c7e7 9bbd f454 933c 5121 e8bc
000001b0: 1365 0bbe c656 383e a6e2 be3d efdf 46bd
000001c0: ca92 f23d 8d7d a43d 3fee 953e ed5a 0e3d
000001d0: eeb6 c4bd 5402 2cbe 0391 f2bc 2d91 2d3e
000001e0: c12b 563e 6538 163c bc9b 33be fd25 80be
000001f0: 7fb1 0c3e 5b5f 25be d2ea d1bc 445e 173d
00000200: 2056 9f3d 658e bf3e fb84 8dbe 12ff 123d
00000210: db8c d33d d082 ad3c 5e83 2d3e 9282 0bbf
00000220: df3f 2dbe 1aeb f3bd 3ed7 c5bd c3cd eb3d
00000230: e7bd 08bf f4b2 d7bd d367 4e3d 2bb2 14bd
00000240: 7b32 883e 788b 10bf 0bc0 49be 8545 4c3d
00000250: 87d5 0a3d 7b7f 9f3d 82e7 cbbc b9e8 633d
00000260: f3a1 5abe 5686 6abe 0a37 28be 080f fd3d
00000270: 47d9 123e e259 72b9 f0ff cf3c 176b 89bd
00000280: 4805 393d f8d0 923d d339 8c3d b705 17bc
00000290: 6218 a9bd 860e 993d 6c29 553e e5d2 2b3e
000002a0: d899 07ba 5d17 22bd 1fac c43d e877 6d3c
000002b0: f180 83bc 3fab 35be 52d8 a2be 3495 03bf
000002c0: 92b3 00be ec60 fbbd c741 b1bd f857 3d3e
000002d0: b736 c9be 1e31 1fbd 552c a0bd bb5d 8abd
000002e0: 0bfe 0d3e 9d7d f0be e2c8 43bd 3e70 863b
000002f0: 76c4 adbd 9b30 0a3e 1274 25bf 96a6 d53a
00000300: d80e 2a3e 0278 bd3b 466e 0c3e f433 49bf
00000310: 9c15 57be 5612 793e ecf6 943e 9afd 793e
00000320: 284c 2b3d b527 0d3e 2f36 133e b5eb 583d
00000330: e9f1 0d3c 0ac9 0e3e 8cc2 7f3d 5e8f 9a3d
00000340: 9c7b ad3b eaf1 903d b102 c03c 5827 fe3c
00000350: 288a 2d3c 533d a1bc e06f dbbc 9cbe 163e
00000360: 7088 8c3e f557 833e 6108 5e3e ab34 543e
00000370: bed2 07bf 2df1 58be 7650 2bbe 39e6 8dbe
00000380: b04c b1be 194c bfbe 8332 96be b8fe d0be
00000390: 6ba0 5cbe 219e e5be 5354 0abf 35d4 2bbe
000003a0: 2a58 89be 99c6 e2bd a9ee 42be 9836 22bf
000003b0: f52c 013e a0cd 9ebb 457c 09bd c913 27be
000003c0: 7189 65be fe5c 413e 0359 753c 5624 2ebd
000003d0: e2d0 2fbe 18df 41ba eef5 123e 01a4 ce3d
000003e0: 5f7a 083e 3d4f ee3c d355 5fbe 8dc2 0cbe
000003f0: ef7b afbe 27af a6be 9a8a cebe 080a 80bd

conv2.bias f4 [16]
0.19084811 0.044917986 -0.046664596 0.06294724 0.11626272 0.08011601 0.09506107 -0.077173255
0.17584656 0.071164384 -0.13095272 0.26774997 0.033940315 0.216729 0.045557708 -0.065365076
00000000: b06d 433e ecfb 373d 6023 3fbd 7cea 803d
00000010: 261b ee3d dd13 a43d 61af c23d 030d 9ebd
00000020: 1f11 343e a2be 913d 7818 06be 8616 893e
00000030: 0005 0b3d 35ee 5d3e b89a 3a3d 20de 85bd

conv3.weight f4 [8, 16, 3, 3]
-0.029310806 -0.09484812 -0.21983537 -0.12208627 -0.14115086 -0.046215575 -0.014925747 -0.019471347
0.080532245 0.12684812 -0.07525814 -0.1561937 -0.03585396 -0.13052121 -0.26871905 0.07033373
0.059583317 0.07837777 0.113312826 0.034578778 0.014388235 0.022618381 -0.18068877 -0.045110427
-0.18323335 -0.07478828 0.001389986 -0.40882334 0.01813988 -0.060166366 -0.19536078 -0.0938365
-0.19544335 -0.03794955 0.003847663 -0.018273206 0.22458793 -0.026460825 0.112411544 0.033473074
-0.113448754 -0.36850992 0.22789186 0.05758073 -0.0032458561 -0.13808171 0.1326379 0.27859178
0.007444222 0.062120777 0.031845745 0.1416303 0.13930142 0.033280272 -0.104846075 -0.019867646
0.13438414 -0.18339582 0.020450294 0.15856196 -0.18698977 -0.05540349 0.14755104 -0.02247071
-0.096449144 -0.012692902 -0.13622577 -0.04942943 -0.000615602 -0.012941454 -0.008170431 -0.022063939
-0.29841867 0.095143355 0.114346236 -0.067624286 0.18742853 0.17879789 0.24904801 0.14880383
0.014332108 -0.24917586 -0.18740302 -0.19593933 -0.15487313 0.12160452 0.01311219 -0.12427297
-0.027583702 0.1375219 0.11943154 -0.02440271 -0.019689785 -0.16372423 0.16425085 0.036462158
0.08965196 -0.0014308741 0.02410853 -0.24680328 -0.03170059 0.20611271 -0.04883568 0.10895007
0.16436535 0.13640326 0.13365844 0.01259911 -0.053282853 0.01127285 0.06763543 0.014544922
0.05758365 0.02919999 -0.076878406 -0.066820785 -0.009341722 -0.28084588 -0.02663842 0.0073774303
-0.10226112 0.062144987 0.014841081 -0.034861084 0.090208866 -0.18126833 -0.047237027 0.071751416
-0.034012225 -0.085433714 -0.058773294 -0.04712967 0.17113319 -0.03107003 -0.011114268 0.001272215
-0.092977375 -0.13179865 0.020888137 0.053143602 0.099802785 -0.0027052595 0.04251799 -0.010635533
0.1338924 0.093727596 0.06286989 -0.05473336 -0.032387055 -0.1210913 -0.12445233 -0.336694
-0.55599636 0.04140904 -0.0034561371 0.087154284 0.005123045 -0.14775878 -0.12378634 -0.08347443
-0.31587434 -0.17622425 -0.034568854 -0.03999226 -0.03407231 0.014802291 -0.017430957 0.09965524
-0.036954094 -0.010072266 0.18353093 0.053287 0.11643245 0.21778238 0.24536967 0.18323699
0.0108318515 -0.47934884 -0.7773099 -0.56864667 0.12231729 0.046082128 -0.052068073 0.08811648
0.19849776 0.35497537 -0.16579562 -0.3293975 -0.34718293 0.10180158 0.048144836 -0.046286818
-0.11715192 0.020197893 -0.05627193 -0.26491705 -0.19852477 -0.09307259 -0.030406052 -0.036297057
-0.03067989 0.101051725 0.002661242 -0.056267727 -0.012376677 0.08905627 0.178883 0.035954367
-0.10094661 -0.101700954 -0.12536357 -0.071239844 0.038239285 -0.022895763 -0.15994626 -0.0136502925
-0.029062318 -0.0797425 -0.14014131 0.0029527894 -0.038414437 0.043619536 0.07706652 0.24682413
0.41513982 -0.00630977 -0.017683957 0.06314261 -0.11149225 -0.060051344 0.005215516 -0.041502934
0.20270604 0.2792109 -0.07186223 -0.13898371 -0.0433672 7.913111e-05 -0.02185921 -0.13614883
-0.08797623 -0.029355822 -0.017930472 0.08665417 0.04698353 -0.056343287 -0.022985546 -0.079861104
0.027616462 0.038479425 0.04433322 0.20131943 0.0077397074 0.049052697 0.10121772 0.13392076
00000000: 371d f0bc bb3f c2bd 861c 61be 5e08 fabd
00000010: da89 10be 8b4c 3dbd 1f8b 74bc 6082 9fbc
00000020: 17ee a43d 79e4 013e f120 9abd 3ef1 1fbe
00000030: 9adb 12bd 5aa7 05be 8b95 89be 210b 903d
00000040: a30d 743d 8684 a03d 8e10 e83d 7aa2 0d3d
00000050: a2bc 6b3c 2f4a b93c 7a06 39be b6c5 38bd
00000060: 86a1 3bbe 992a 99bd 3130 b63a 4b51 d1be
00000070: 169a 943c 0271 76bd a80c 48be 5a2d c0bd
00000080: 4d22 48be fd70 1bbd 1329 7c3b b1b1 95bc
00000090: 61fa 653e 5fc4 d8bc 0638 e63d 101b 093d
000000a0: d257 e8bd 55ad bcbe 7c5c 693e c6d9 6b3d
000000b0: 6eb8 54bb 4b65 0dbe 3bd2 073e 95a3 8e3e
000000c0: a9ee f33b 5b72 7e3d af70 023d 8907 113e
000000d0: 08a5 0e3e e550 083d 8ab9 d6bd 79c1 a2bc
000000e0: ff9b 093e 1dcc 3bbe 6087 a73c 115e 223e
000000f0: 3f7a 3fbe c5ee 62bd 9f17 173e 7f14 b8bc
00000100: 2187 c5bd e4f5 4fbc c57e 0bbe 8476 4abd
00000110: 5a60 21ba 6408 54bc 45dd 05bc 6fbf b4bc
00000120: 55ca 98be 85da c23d 5c2e ea3d 9a7e 8abd
00000130: 44ed 3f3e cb16 373e 7106 7f3e 0860 183e
00000140: 38d1 6a3c f527 7fbe 94e6 3fbe 52a4 48be
00000150: 1097 1ebe ca0b f93d 83d4 563c d482 febd
00000160: 37f7 e1bc 8ad2 0c3e 8698 f43d 31e8 c7bc
00000170: 794c a1bc 53a7 27be 6031 283e 5859 153d
00000180: 729b b73d 2b8c bbba 407f c53c 00ba 7cbe
00000190: 7ad8 01bd 360f 533e ec07 48bd 3721 df3d
000001a0: 644f 283e 4cad 0b3e c2dd 083e 7f6c 4e3c
000001b0: 1f3f 5abd c3b1 383c 7284 8a3d d34d 6e3c
000001c0: d5dc 6b3d d134 ef3c 6d72 9dbd 56d9 88bd
000001d0: 060e 19bc 08cb 8fbe d138 dabc 5fbe f13b
000001e0: 476e d1bd be8b 7e3d 0128 733c 7fca 0ebd
000001f0: 6dbf b83d 689e 39be 9d7b 41bd 68f2 923d
00000200: 6750 0bbd dff7 aebd 44bc 70bd 0a0b 41bd
00000210: 8a3d 2f3e 9386 febc 9e18 36bc 74c0 a63a
00000220: ec6a bebd 3af6 06be 991d ab3c 1bad 593d
00000230: 6765 cc3d b94a 31bb 5827 2e3d a940 2ebc
00000240: 171b 093e 41f4 bf3d eec1 803d 1630 60bd
00000250: 4aa8 04bd b7fe f7bd dde0 febd 2863 acbe
00000260: c755 0ebf 879c 293d 5c80 62bb f27d b23d
00000270: 37df a73b 144e 17be b183 fdbd a4f4 aabd
00000280: 48ba a1be 2174 34be 1298 0dbd edce 23bd
00000290: 688f 0bbd 4f85 723c 5ecb 8ebc 0c18 cc3d
000002a0: 2d5d 17bd 2506 25bc 88ef 3b3e 7843 5a3d
000002b0: 2374 ee3d 5802 5f3e 3042 7b3e 7aa2 3b3e
000002c0: 1478 313c 366d f5be c8fd 46bf d492 11bf
000002d0: 7d81 fa3d 9dc0 3c3d 5545 55bd 6a76 b43d
000002e0: ff42 4b3e 55bf b53e 54c6 29be caa6 a8be
000002f0: f6c1 b1be 597d d03d 8533 453d 3f97 3dbd
00000300: 59ed efbd 0d76 a53c 657d 66bd 35a3 87be
00000310: 144a 4bbe d89c bebd 1d16 f9bc 39ac 14bd
00000320: 6554 fbbc 35f4 ce3d 3b68 2e3b fd78 66bd
00000330: 8cc7 4abc 2263 b63d 1b2d 373e e344 133d
00000340: 19bd cebd 9748 d0bd 4f5f 00be 32e6 91bd
00000350: cca0 1c3d e58f bbbc f4c8 23be 7aa5 5fbc
00000360: 1914 eebc 0950 a3bd 3481 0fbe 9683 413b
00000370: 7558 1dbd 66aa 323d 0dd5 9d3d 77bf 7c3e
00000380: 358d d43e 30c2 cebb f2dd 90bc ea50 813d
00000390: 0c56 e4bd 66f8 75bd ebe6 aa3b fbfe 29bd
000003a0: 2c92 4f3e bbf4 8e3e 812c 93bd bf51 0ebe
000003b0: cea1 31bd 31f3 a538 1612 b3bc 996a 0bbe
000003c0: e22c b4bd 9f7b f0bc ede2 92bc be77 b13d
000003d0: cd71 403d 38c8 66bd 2f4c bcbc 388e a3bd
000003e0: eb3b e23c 9a9c 1d3d c096 353d ae26 4e3e
000003f0: 5f9d fd3b 7beb 483d 3c4b cf3d 8622 093e

conv3.bias f4 [8]
0.22460932 0.21541467 -0.013449431 0.12948918 0.079485334 0.1392456 0.14723311 0.0051806723
00000000: fcff 653e aa95 5c3e 015b 5cbc d098 043e
00000010: 35c9 a23d 6696 0e3e 47c4 163e a1c2 a93b

convt1.weight f4 [8, 8, 3, 3]
0.22874534 -0.012258495 -0.029573165 0.064580634 -0.13028246 0.22931251 0.22588009 -0.106874794
0.03635299 -0.17237283 0.0015428012 -0.09644621 -0.124690406 -0.30253792 -0.10566472 0.12240308
-0.5063383 0.130147 -0.17848544 0.10062588 0.19111286 0.41127428 0.16452624 -0.2768149
0.15363207 0.17468458 0.3673294 0.19606966 0.24263774 0.08507672 0.36376154 0.21426253
-0.076714896 -0.17242453 -0.2250862 -0.3470375 0.0064083766 -0.37064344 0.09994724 0.18142769
-0.19490983 0.07250372 -0.028299391 -0.33291554 0.080967754 -0.20531334 -0.80691105 -0.37979493
0.10093425 -0.012543365 -0.057324164 0.14638871 -0.49306577 0.09774269 -0.08942086 0.0032544634
0.09006215 -0.042194214 -0.4477765 -0.20106634 -0.1695942 -0.23317565 -0.04482343 -0.09442746
0.02097408 0.34342974 -0.15040016 -0.02916405 -0.10480719 -0.115062505 -0.47853756 -0.24380022
0.087594345 -0.06461272 0.18449657 -0.06356688 0.065593 -0.07850809 -0.11685837 0.33964995
-0.08994904 0.0742626 -0.038317338 0.037908733 0.0034550726 0.10067864 -0.3092099 0.058045577
-0.17207906 0.078343704 -0.13183436 -0.04169729 -0.14526542 -0.018648535 -0.3110857 -0.13115482
0.09873983 0.19148564 -0.27362338 0.27176315 0.060967512 0.29025257 0.3096091 0.22031271
0.19115943 0.004764214 0.011554094 -0.13147311 -0.3893706 -0.12673873 -0.07519377 -0.041440103
-0.7644756 -0.1800984 -0.09331149 0.20386451 0.112555176 -1.6342652 -0.04726873 -0.38001117
0.085208505 -0.17253874 0.012111991 -0.113749474 -1.0146562 0.2701866 0.11557479 -0.76244605
0.10071767 -1.1195191 0.2816833 -0.51561713 -0.040528286 -0.44243804 -0.14520808 0.27522174
0.16127242 0.20093459 -0.5864356 0.30905002 -0.18498269 0.0671219 -0.07070199 0.017475659
-0.32302028 -0.0869645 -0.06276683 -0.12615667 -0.0065822066 -0.10198524 -0.81048024 -0.15240009
-0.23172297 -0.08912816 -0.26521647 -0.0974865 -0.018078074 -0.43636054 -0.3075163 0.039421402
-0.13884576 -0.07747753 0.17943153 -0.049274318 -0.23888184 -0.1731007 -0.078428954 0.084661365
-0.041326284 -0.07783128 -0.13229907 -0.04540395 0.052534614 0.09391156 -0.06257404 0.00029958854
0.09671563 -0.06347588 -0.20995758 -0.013059543 0.09475036 -0.058180083 -0.23161948 0.012254634
-0.13191932 -0.00667521 0.14214388 0.20533936 0.18749408 -0.28602856 -1.0523202 -0.2781853
-0.013405636 -0.024551304 0.068517625 -0.55092305 -0.4604952 -0.026140625 0.16511717 0.105696365
0.08845332 0.101292916 -0.043322645 0.01918297 -0.07207893 0.09839305 -0.2498801 0.055664085
-0.04129157 -0.1685774 0.10274847 -0.071653694 -0.35718793 0.24495819 0.15218449 0.109926075
0.06566826 0.062342424 0.036330983 -0.115523174 -0.19726327 0.33303043 0.02144634 -0.19119765
0.18100417 -0.29382434 -0.0969593 -0.07097308 0.075112246 0.28673613 0.09602773 0.10372887
-0.24343507 -0.024330262 0.14614408 0.07197647 0.16052072 0.07571656 0.01725764 -0.069129124
0.14869258 0.08124751 0.24881402 -0.06002567 -0.1607088 -0.08561995 -0.09129401 -0.10939082
-0.080650434 0.01951749 -0.029818267 -0.090049386 -0.03632979 0.0044658594 -1.273488 0.32928705
00000000: 383c 6a3e dbd7 48bc 6c43 f2bc da42 843d
00000010: c468 05be e6d0 6a3e 1c4d 673e 2ce1 dabd
00000020: dfe6 143d 8182 30be d137 ca3a 9785 c5bd
00000030: af5d ffbd 40e6 9abe bf66 d8bd 77ae fa3d
00000040: 639f 01bf 4145 053e e3c4 36be f114 ce3d
00000050: 17b3 433e 8b92 d23e 9179 283e afba 8dbe
00000060: ba51 1d3e 84e0 323e 9912 bc3e 7cc6 483e
00000070: 0776 783e b43c ae3d f43e ba3e a367 5b3e
00000080: b31c 9dbd 0e90 30be ff7c 66be e6ae b1be
00000090: 5cfd d13b fac4 bdbe 23b1 cc3d 2ec8 393e
000000a0: 7196 47be d57c 943d 20d4 e7bc e873 aabe
000000b0: 6cd2 a53d a93d 52be b991 4ebf 7b74 c2be
000000c0: 9eb6 ce3d b082 4dbc becc 6abd ece6 153e
000000d0: 1e73 fcbe 522d c83d 4922 b7bd d648 553b
000000e0: 8172 b83d d7d3 2cbd f642 e5be 56e4 4dbe
000000f0: 1aaa 2dbe 99c5 6ebe c698 37bd 2f63 c1bd
00000100: d5d1 ab3c 06d6 af3e 8002 1abe 72e9 eebc
00000110: 27a5 d6bd e4a5 ebbd e002 f5be c4a6 79be
00000120: aa64 b33d ac53 84bd abec 3c3e 5a2f 82bd
00000130: 9f55 863d d9c8 a0bd 7153 efbd 99e6 ad3e
00000140: 3437 b8bd fd16 983d a4f2 1cbd 3046 1b3d
00000150: 806e 623b 9a30 ce3d c350 9ebe 33c1 6d3d
00000160: 7e35 30be aa72 a03d 96ff 06be c7ca 2abd
00000170: 75c0 14be d0c4 98bc a046 9fbe 734d 06be
00000180: 1c38 ca3d d014 443e 5d18 8cbe 8a24 8b3e
00000190: 12b9 793d fc9b 943e 1585 9e3e a899 613e
000001a0: 4cbf 433e 201d 9c3b 624d 3d3c e3a0 06be
000001b0: 955b c7be ccc7 01be 31ff 99bd 19bd 29bd
000001c0: acb4 43bf b76b 38be 181a bfbd dcc1 503e
000001d0: 5483 e63d 9a2f d1bf db9c 41bd d390 c2be
000001e0: cc81 ae3d ffad 30be 5f71 463c 7cf5 e8bd
000001f0: 41e0 81bf e655 8a3e 7ab2 ec3d aa2f 43bf
00000200: 1145 ce3d 674c 8fbf cb38 903e 7cff 03bf
00000210: fd00 26bd 3d87 e2be 6db1 14be dde9 8c3e
00000220: 9924 253e ccc1 4d3e a520 16bf ce3b 9e3e
00000230: 1a6c 3dbe 3577 893d 34cc 90bd 1d29 8f3c
00000240: ea62 a5be 721a b2bd e58b 80bd 372f 01be
00000250: 8daf d7bb a3dd d0bd a27b 4fbf c50e 1cbe
00000260: c948 6dbe d388 b6bd 74ca 87be 01a7 c7bd
00000270: 7818 94bc a66a dfbe c772 9dbe 5678 213d
00000280: 952d 0ebe 8aac 9ebd e6bc 373e ded3 49bd
00000290: 719d 74be 4f41 31be 5c9f a0bd f062 ad3d
000002a0: c045 29bd 0266 9fbd 6879 07be 7ef9 39bd
000002b0: 892e 573d b454 c03d d126 80bd 1812 9d39
000002c0: d812 c63d a4ff 81bd 1fff 56be b2f7 55bc
000002d0: 7a0c c23d 3d4e 6ebd a82d 6dbe a9c7 483c
000002e0: dc15 07be b8bb dabb 2a8e 113e 7b44 523e
000002f0: 73fe 3f3e 5672 92be 6eb2 86bf 4e6e 8ebe
00000300: 50a3 5bbc d11f c9bc f852 8c3d 4b09 0dbf
00000310: 07c6 ebbe dd24 d6bc 7a14 293e 5677 d83d
00000320: 0427 b53d a972 cf3d 1673 31bd 9b25 9d3c
00000330: 1e9e 93bd 4c82 c93d 92e0 7fbe 0600 643d
00000340: 5921 29bd 8e9f 2cbe ca6d d23d 2cbf 92bd
00000350: 56e1 b6be 52d6 7a3e 40d6 1b3e ec20 e13d
00000360: 157d 863d c55a 7f3d cccf 143d 6a97 ecbd
00000370: 62ff 49be f782 aa3e 3cb0 af3c 51c9 43be
00000380: 2859 393e 2570 96be 9992 c6bd 565a 91bd
00000390: 73d4 993d 14cf 923e 30aa c43d cd6f d43d
000003a0: 0b47 79be 4250 c7bc cba6 153e 6668 933d
000003b0: 8b5f 243e 4911 9b3d e55f 8d3c 9293 8dbd
000003c0: de42 183e 1865 a63d 1ac9 7e3e 7add 75bd
000003d0: d990 24be 8359 afbd 5bf8 babd 4b08 e0bd
000003e0: 0e2c a5bd 25e3 9f3c 7045 f4bc d06b b8bd
000003f0: 8cce 14bd 5856 923b a801 a3bf 5098 a83e

convt1.bias f4 [8]
-0.023772135 0.20606719 0.014562928 -0.0708517 0.08062477 0.116632 0.06956238 0.06009082
00000000: c8bd c2bc 4703 533e 5999 6e3c b21a 91bd
00000010: 991e a53d c2dc ee3d b976 8e3d cb21 763d

convt2.weight f4 [8, 16, 5, 5]
-0.057119448 -0.14504482 0.22470748 0.07068469 0.10216617 0.45837897 -0.1666819 -0.4116458
-0.024624176 -0.112100504 -0.29257613 0.09888524 -0.53977984 -0.34748122 -0.40423238 0.32529953
0.37707806 0.12211992 -0.4554743 -0.0009569841 -0.06814528 0.11656876 -0.05029102 0.3288857
-0.052488405 0.092992015 0.3085021 0.057778154 0.32739335 -0.05836146 -0.28780755 -0.10507919
-0.4075346 0.013428798 -0.32927582 -0.1803418 0.10936353 -0.053259626 0.037241135 -0.18642405
0.021525247 -0.12589999 -0.13073854 0.11005432 -0.269665 -0.14502081 -0.14823662 -0.23498286
-0.20522316 -0.24551022 0.024944058 -0.2135303 -0.027850173 -0.102479346 0.014039494 0.030408451
0.03953329 -0.09910061 -0.18187149 -0.13083424 0.1879297 -0.23758048 -0.12688088 -0.084006175
-0.2003866 0.26223344 0.019225331 -0.08232427 -0.18789347 -0.028200379 0.061790697 0.024096167
0.10136447 0.1620065 -0.025286116 0.06479684 -0.018620761 -0.9152828 -0.49395528 -0.054732498
0.017559342 0.13965428 0.06310641 0.27297235 -0.023507575 -0.1742292 -0.09144987 -0.37559417
0.16463853 -0.84165186 -0.20535564 -0.33969378 0.14660965 -0.10838987 -0.034463383 0.25378025
0.36003765 -0.05619384 -0.5656503 -0.120515525 -0.14130506 -0.40874296 0.10152225 -0.5644448
-0.10955996 0.13088186 -0.163231 -0.18679492 -0.59327894 0.23322918 0.12817068 -0.106879525
-0.29087803 0.035345417 -0.15064327 0.10668679 -0.026377954 -0.1362372 -0.14257786 -0.22962362
0.09557932 0.0079586385 -0.19904931 -0.13486058 -0.05260391 0.0073042205 0.07823878 0.063335545
0.037703227 0.22332262 0.016931972 0.2449637 0.080387875 0.142808 0.21134715 -0.086132646
0.03029108 0.16237801 -0.15225954 0.40865153 -0.1165316 0.25007612 0.25373277 0.1887434
0.10736298 -0.24395631 0.112850405 -0.2943267 0.16663797 0.19064198 0.06353429 -0.009736453
0.082441434 -0.014901561 0.17324542 0.30480683 -0.07399284 -0.10913272 -0.009551292 0.027786927
0.13566802 -0.18411198 0.039950315 -0.12804125 0.33335796 0.060072232 -0.00553117 -0.64115727
-0.053367775 0.21998316 -0.037198786 -0.017395088 0.07256274 -0.048751585 0.22215809 0.18094961
0.01673697 -0.22708307 0.0016119587 -0.15366107 -0.2885942 -0.07582023 -0.12892337 -0.18577465
-0.0668195 -0.020016491 -0.13658527 0.19033234 0.09684964 -0.07087306 -0.027741808 0.20930879
-0.37238988 0.18926367 0.04383404 0.41746762 -0.16203314 -0.14226449 -0.14096282 0.043909818
-0.06938786 0.02278441 -0.15972674 0.12942988 0.16058348 0.015752107 0.015651364 0.005303739
0.14556308 0.03788464 -0.12970042 -0.09618836 0.25229025 -0.057760313 0.19159028 -0.0051864805
0.008302502 -0.0837351 -0.07156013 0.093416356 0.08231319 -0.061324626 -0.10631733 0.1108768
0.044978272 -0.018796535 0.3964415 0.1276525 0.10329093 0.17373988 -0.21204996 -0.15750115
-0.7043702 -0.13416351 0.13885505 0.027249375 -0.19681287 -0.0388241 0.036225516 0.1922781
0.4140969 0.23445506 0.21742725 0.3015934 0.079929404 0.42776307 -0.39602733 -0.26642972
-0.12724125 0.23683344 0.18738604 0.12400718 0.0473577 0.10529086 0.04728549 -0.60417527
00000000: 15f6 69bd a186 14be b819 663e 22c3 903d
00000010: 7f3c d13d a6b0 ea3e a9ae 2abe 3dc3 d2be
00000020: a4b8 c9bc f394 e5bd 8acc 95be 5884 ca3d
00000030: 032f 0abf 0fe9 b1be 8cf7 cebe a98d a63e
00000040: 6010 c13e 021a fa3d ed33 e9be 1ede 7aba
00000050: c18f 8bbd 9abb ee3d f5fd 4dbd b563 a83e
00000060: 15fe 56bd 9972 be3d fdf3 9d3e c9a8 6c3d
00000070: 1aa0 a73e 6d0c 6fbd 835b 93be c233 d7bd
00000080: 60a8 d0be 7604 5c3c d796 a8be 85ab 38be
00000090: fdf9 df3d c426 5abd 298a 183d f2e5 3ebe
000000a0: b755 b03c edeb 00be 53e0 05be 2964 e13d
000000b0: 8811 8abe 5680 14be 57cb 17be 599f 70be
000000c0: 0526 52be 0867 7bbe 7b57 cc3c b0a7 5abe
000000d0: 0c26 e4bc b1e0 d1bd e805 663c 251b f93c
000000e0: a9ed 213d 43f5 cabd 853c 3abe 69f9 05be
000000f0: a570 403e 4c48 73be 10ed 01be 6e0b acbd
00000100: 2532 4dbe 7643 863e 717e 9d3c a099 a8bd
00000110: 2567 40be 7b04 e7bc 3e18 7d3d 5365 c53c
00000120: 2d98 cf3d 08e5 253e d424 cfbc 35b4 843d
00000130: 918a 98bc f94f 6abf b5e7 fcbe 2f2f 60bd
00000140: 9cd8 8f3c 8801 0f3e ef3d 813d 08c3 8b3e
00000150: f592 c0bc 2469 32be 124a bbbd e14d c0be
00000160: 0197 283e 7f76 57bf c048 52be 58ec adbe
00000170: d720 163e 82fb ddbd 7a29 0dbd 7cef 813e
00000180: db56 b83e 832b 66bd 75ce 10bf d8d0 f6bd
00000190: 46b2 10be c246 d1be e6ea cf3d 747f 10bf
000001a0: f960 e0bd e505 063e 0726 27be 2b47 3fbe
000001b0: 21e1 17bf a1d3 6e3e 2d3f 033e a7e3 dabd
000001c0: f7ed 94be 5bc6 103d 3b42 1abe 9b7e da3d
000001d0: 9416 d8bc c481 0bbe eeff 11be 7422 6bbe
000001e0: 17bf c33d f364 023c 95d3 4bbe e418 0abe
000001f0: 3377 57bd 3e58 ef3b a73b a03d 11b6 813d
00000200: b36e 1a3d afae 643e ebb4 8a3c c4d7 7a3e
00000210: 66a2 a43d 433c 123e 636b 583e 5066 b0bd
00000220: 0025 f83c 6c46 263e ede9 1bbe c63a d13e
00000230: 1fa8 eebd fa09 803e 43e9 813e f345 413e
00000240: 1fe1 db3d afcf 79be 1d1e e73d fdb1 96be
00000250: 25a3 2a3e a737 433e 441e 823d a585 1fbc
00000260: 0ed7 a83d ad25 74bc 3f67 313e a40f 9c3e
00000270: 8f89 97bd fa80 dfbd 067d 1cbc 69a1 e33c
00000280: 8fec 0a3e da87 3cbe f1a2 233d 3f1d 03be
00000290: e5ad aa3e 4d0e 763d d13e b5bb e222 24bf
000002a0: 2b98 5abd 4443 613e c15d 18bd 2580 8ebc
000002b0: c69b 943d beaf 47bd 697d 633e db4a 393e
000002c0: f81b 893c 7788 68be 5c48 d33a 5459 1dbe
000002d0: 9ec2 93be a347 9bbd 7d04 04be b63b 3ebe
000002e0: a9d8 88bd a0f9 a3bc 02dd 0bbe 7be6 423e
000002f0: 1b59 c63d e525 91bd ca42 e3bc 0b55 563e
00000300: e3a9 bebe 56ce 413e 538b 333d 51be d53e
00000310: 04ec 25be c8ad 11be 8f58 10be c8da 333d
00000320: 391b 8ebd 5fa6 ba3c 688f 23be 4489 043e
00000330: ff6f 243e 900a 813c 4a37 803c fdca ad3b
00000340: 7d0e 153e ed2c 1b3d 30d0 04be 67fe c4bd
00000350: 302c 813e 1496 6cbd 3e30 443e 5af3 a9bb
00000360: 3807 083c 4f7d abbd 1e8e 92bd 1351 bf3d
00000370: d193 a83d 882f 7bbd e6bc d9bd 6013 e33d
00000380: 233b 383d 31fb 99bc 61fa ca3e 56b7 023e
00000390: 328a d33d dee8 313e a023 59be fb47 21be
000003a0: 9b51 34bf 2962 09be 0530 0e3e 153a df3c
000003b0: 5089 49be 0506 1fbd 3561 143d 8de4 443e
000003c0: 8204 d43e fd14 703e 40a5 5e3e 736a 9a3e
000003d0: 07b2 a33d c303 db3e 18c4 cabe 7a69 88be
000003e0: 884b 02be 7784 723e 20e2 3f3e 7af7 fd3d
000003f0: 26fa 413d bca2 d73d 6eae 413d 3bab 1abf

convt2.bias f4 [16]
-0.049244355 0.12855028 0.13780475 0.041015416 0.07691574 -0.028292626 -0.017190041 0.024148377
0.041614033 0.05048373 0.028984789 0.07812343 0.12963505 0.10140756 -0.121727936 0.044580724
00000000: 73b4 49bd afa2 033e b01c 0d3e c8ff 273d
00000010: 0086 9d3d f0c5 e7bc 21d2 8cbc d1d2 c53c
00000020: 7a73 2a3d 07c8 4e3d 8271 ed3c 2dff 9f3d
00000030: 0dbf 043e c4ae cf3d 7f4c f9bd 479a 363d

convt3.weight f4 [16, 32, 9, 9]
0.1939906 -0.29381028 -0.017905248 0.054419912 -0.037952747 -0.13105069 -0.176334 0.015749238
-0.09894716 0.013720125 -0.033166166 0.03229028 0.24217011 0.046323206 -0.039654527 -0.9760697
-0.024212124 -0.061411273 0.013830889 0.17642295 -0.563411 0.07531489 -0.1032727 0.25400382
0.0017217714 0.0740368 0.20179725 0.24083701 0.06046665 0.029281678 -0.11615168 0.25393546
-0.029104205 -0.020743283 -0.48124108 -0.1692463 -0.64028966 -0.02726812 0.10128446 0.029651504
-0.03512168 0.01852206 -0.52494425 0.025916385 0.08517768 0.12704682 0.082425885 -0.36023778
0.11342489 -0.042833515 0.27019754 0.09530126 -0.6261537 0.1836495 0.07746686 0.30232516
0.02149011 0.41133562 -0.29536498 -0.025135655 -0.33345842 0.18110064 0.005994674 -0.54345024
-0.010141789 -0.0003142803 -0.742758 -0.024400385 -0.4039467 -0.459165 -0.0030031202 0.021209007
0.23957704 0.26056597 -0.19350128 0.05811123 -0.11913391 0.393231 0.021004472 0.21763559
-0.13165337 0.009750715 0.3891215 0.073679686 -0.021648182 0.076934405 0.06351296 -0.025021339
0.2092363 -0.21334916 0.1693652 0.00050881435 0.020352243 0.22313893 -0.0330933 -0.0367631
0.0019428738 -0.032490335 -0.009997999 0.050914794 0.01170597 0.0053040846 0.0110235615 -0.003961928
-0.0022024445 0.023595445 -0.008372272 -0.023124479 -0.020206295 0.4323176 0.06480008 0.012321237
0.035718776 0.11621117 -0.017000867 0.027895108 -0.10763903 0.15955506 0.06692145 -0.0058854274
0.31473356 0.073206805 -0.018277295 0.20575048 -0.018301139 -0.018734764 0.067167826 -0.03048903
0.025479432 0.011013047 0.0007447112 -0.0129389465 0.029946038 0.012361303 -0.03281073 -0.010027831
0.47159398 0.21547116 0.012936851 -0.17271738 0.021429693 -0.036866378 0.0040427637 0.011098239
0.16688256 -0.06137018 0.040916566 0.21703318 0.016782159 -0.02375403 0.20217416 0.011297181
0.016389776 0.032309156 0.006051745 0.013343224 0.0069723236 -0.058519516 -0.018941661 0.009825235
-0.023853764 -0.035278585 0.31562695 -0.08753049 -0.16392288 0.2307968 -0.040886838 -0.04325772
0.19993307 -0.08750551 0.026633125 -0.8063597 -0.090950646 -1.4049308 0.03819383 -0.037323058
-0.6618595 -0.5339156 -0.07187837 -0.7095104 -0.34111652 -0.58311427 0.053698495 -0.2222604
-0.9069579 -0.034586586 -0.14500946 -0.13475458 -0.15470806 -0.012546494 -0.57332045 -0.34954152
0.3293536 -0.8700516 -0.12747963 0.18914916 -0.74707735 0.012592329 -0.09067682 -0.078485176
-0.5432589 -0.28167123 0.03559529 -1.2076968 0.029878885 0.119574726 -0.32748446 -0.07913026
-0.24044247 -0.31359357 -0.38706315 -1.4716518 -1.2081447 -0.5735745 -0.78559667 -1.286219
-0.249818 0.15455572 -0.33344895 -0.26213247 -0.5819286 -0.29352638 0.12603696 -1.0290467
-0.27022034 0.081129394 -0.17081653 0.1781852 -0.17454769 -0.11973177 -0.25505084 -0.6338165
0.00054489693 -0.688616 0.036495768 0.3676837 -0.11214228 -0.14863035 -0.15275474 0.02501661
-0.37606835 -0.13442798 -0.37689582 0.17495841 -0.089726806 0.18755786 0.14387605 0.11137292
0.10618885 0.1939928 -0.24425887 0.22246096 0.08129044 0.12906142 0.030156722 0.013524549
00000000: 79a5 463e 4d6e 96be 07ae 92bc 6ae7 5e3d
00000010: 5774 1bbd 2732 06be e690 34be 8c04 813c
00000020: cfa4 cabd 60ca 603c 3fd9 07bd d042 043d
00000030: 71fb 773e 67bd 3d3d c96c 22bd b4df 79bf
00000040: 8158 c6bc 638a 7bbd f49a 623c 38a8 343e
00000050: b43b 10bf b13e 9a3d a380 d3bd ca0c 823e
00000060: 10ad e13a 9ba0 973d f0a3 4e3e fa9d 763e
00000070: e1ab 773d 21e0 ef3c efe0 edbd d403 823e
00000080: f16b eebc d1ed a9bc 3b65 f6be e74e 2dbe
00000090: 06ea 23bf 6461 dfbc 3a6e cf3d b6e7 f23c
000000a0: c0db 0fbd 93bb 973c bf62 06bf 994e d43c
000000b0: a371 ae3d 9018 023e e7ce a83d 1671 b8be
000000c0: 4f4b e83d 3272 2fbd 5557 8a3e 4f2d c33d
000000d0: 9c4b 20bf 9d0e 3c3e f2a6 9e3d 5dca 9a3e
000000e0: 070c b03c 959a d23e 143a 97be 4ae9 cdbc
000000f0: 10bb aabe 7272 393e f86e c43b 8e1f 0bbf
00000100: bf29 26bc fdc5 a4b9 6325 3ebf 51e3 c7bc
00000110: 1ad2 cebe ad17 ebbe ffcf 44bb 83be ad3c
00000120: af53 753e e768 853e 3325 46be 0b06 6e3d
00000130: 7bfc f3bd 9355 c93e 9211 ac3c dddb 5e3e
00000140: 24d0 06be 77c1 1f3c ef3a c73e 60e5 963d
00000150: 8757 b1bc c98f 9d3d 1513 823d 8df9 ccbc
00000160: 0a42 563e 3478 5abe 126e 2d3e f461 053a
00000170: bfb9 a63c 887e 643e d78c 07bd e894 16bd
00000180: 07a8 fe3a 9614 05bd a6ce 23bc 088c 503d
00000190: 66ca 3f3c e3cd ad3b 2b9c 343c 10d3 81bb
000001a0: e356 10bb 3c4b c13c db2b 09bc 8c6f bdbc
000001b0: ac87 a5bc bc58 dd3e e8b5 843d 03df 493c
000001c0: da4d 123d 1f00 ee3d 6745 8bbc 4884 e43c
000001d0: da71 dcbd 6762 233e 1d0e 893d 8bda c0bb
000001e0: c224 a13e 73ed 953d 44ba 95bc 41b0 523e
000001f0: 45ec 95bc a679 99bc 498f 893d 21c4 f9bc
00000200: 3eba d03c 1170 343c b938 433a e0fd 53bc
00000210: 6551 f53c 1087 4a3c 8b64 06bd c64b 24bc
00000220: c474 f13e 79a4 5c3e 16f5 533c d3dc 30be
00000230: 538d af3c 3301 17bd 2979 843b 63d5 353c
00000240: 43e3 2a3e 4c5f 7bbd 2198 273d f23d 5e3e
00000250: bd7a 893c d097 c2bc be06 4f3e d017 393c
00000260: da43 863c 9b56 043d b74d c63b 8a9d 5a3c
00000270: 1778 e43b 29b2 6fbd 8b2b 9bbc 06fa 203c
00000280: f868 c3bc 4780 10bd db99 a13e 2f43 b3bd
00000290: 66db 27be ff55 6c3e f578 27bd 022f 31bd
000002a0: 41bb 4c3e 1736 b3bd b62d da3c 976d 4ebf
000002b0: 5544 babd c6d4 b3bf 2271 1c3d 10e0 18bd
000002c0: a06f 29bf b1ae 08bf f834 93bd 79a2 35bf
000002d0: d3a6 aebe fa46 15bf f4f2 5b3d 3b98 63be
000002e0: 652e 68bf aaaa 0dbd 5c7d 14be 1bfd 09be
000002f0: ca6b 1ebe cf8f 4dbc 21c5 12bf 1bf7 b2be
00000300: 09a1 a83e b4bb 5ebf 058a 02be 51b0 413e
00000310: 7640 3fbf 0e50 4e3c c5b4 b9bd d6bc a0bd
00000320: 0413 0bbf 3637 90be 5ecc 113d cf95 9abf
00000330: 90c4 f43c 98e3 f43d 0bac a7be 0c0f a2bd
00000340: 8d36 76be 568f a0be 242d c6be 165f bcbf
00000350: 7ca4 9abf c7d5 12bf dd1c 49bf d3a2 a4bf
00000360: 4ad0 7fbe db43 1e3e d2b9 aabe 3a36 86be
00000370: 46f9 14bf 1749 96be d50f 013e cdb7 83bf
00000380: 525a 8abe 2b27 a63d 87ea 2ebe 2e76 363e
00000390: a1bc 32be ee35 f5bd 0696 82be cc41 22bf
000003a0: 6ad7 0e3a 2349 30bf 967c 153d 0a41 bc3e
000003b0: daaa e5bd 8e32 18be bd6b 1cbe a2ef cc3c
000003c0: 088c c0be 7da7 09be 7df8 c0be 4c28 333e
000003d0: b0c2 b7bd 2b0f 403e 3e54 133e 7c17 e43d
000003e0: 8a79 d93d 0ca6 463e ff1e 7abe cecc 633e
000003f0: 9a7b a63d ad28 043e 3b0b f73c 1296 5d3c

convt3.bias f4 [32]
-0.020814536 -0.14540607 0.06324233 0.18420206 0.020251323 0.021704424 0.021878054 0.24179265
0.057231758 0.12232808 0.07867508 0.056161974 0.07101009 0.13702346 0.069608524 0.24617842
0.06688671 -0.022379268 0.055101223 -0.009388413 0.113932185 0.1581488 0.11370764 0.108433016
0.08413335 0.116481856 0.054387137 0.09560758 0.12641785 0.14024135 0.037593156 0.07275341
00000000: 3f83 aabc 54e5 14be 3285 813d 779f 3c3e
00000010: 1ae6 a53c 7acd b13c 9b39 b33c 7e98 773e
00000020: d96b 6a3d 2587 fa3d 6620 a13d 190a 663d
00000030: bd6d 913d e14f 0c3e ea8e 8e3d 3216 7c3e
00000040: e6fb 883d ba54 b7bc d2b1 613d dcd1 19bc
00000050: 4755 e93d c2f1 213e 8ddf e83d 2112 de3d
00000060: 1b4e ac3d 0a8e ee3d 0cc5 5e3d e8cd c33d
00000070: ae73 013e 6e9b 0f3e 48fb 193d bdff 943d

pos_output.weight f4 [1, 32, 2, 2]
0.23722841 0.22807062 0.2740906 0.20447235 -0.010046506 0.025139816 0.034695003 -0.012159026
0.24695374 0.19848105 0.18544449 0.17041323 0.30613574 0.17354383 0.24716085 0.27096134
0.09753754 -0.015412362 -0.12032218 -0.056099527 0.106521145 0.14058526 0.14992778 0.14792113
0.21207316 0.124652125 0.14430672 0.046229217 0.08871168 -0.13541707 0.08268721 0.15263034
0.12587659 0.24884897 0.18878716 0.18622944 0.1227688 0.18965414 0.22635952 0.26078397
-0.06457354 -0.076163225 -0.032015678 0.17338915 0.03737609 -0.11126977 0.024743315 -0.07441143
-0.105758235 0.037102133 -0.13232659 0.043684013 0.2109958 0.275807 0.19390051 0.22038838
-0.098862156 0.12788577 0.03578366 -0.043624792 -0.15562063 -0.12822431 0.06178411 0.19926701
0.17384695 0.20886828 0.26328647 0.22027852 0.35466883 0.32738283 0.3396391 0.30649465
0.031298064 -0.03734865 -0.0018342033 0.10455254 0.13504799 0.16460358 0.12505122 0.25992697
0.20001861 0.16524173 0.11291704 0.13510038 -0.039519403 0.019349486 -0.18470894 0.06302189
0.14451395 0.14333862 0.14936626 0.08620207 0.12442459 -0.037087947 0.0007107625 -0.14398602
-0.13810195 -0.12900545 -0.123349585 -0.13585722 -0.04456657 -0.0637801 -0.12431365 -0.111320205
0.14521177 0.1044734 0.093724474 0.12554426 0.043151498 0.0062170406 0.041099705 0.022194987
0.24549931 0.25394294 0.23347957 0.21877578 -0.0047099413 -0.014529375 -0.019412484 -0.030206079
-0.1648759 -0.14671545 0.029325677 0.089673504 0.019307373 0.049814634 0.106463015 0.14508574
00000000: 01ec 723e 588b 693e 9a55 8c3e 3361 513e
00000010: 1a9a 24bc 04f2 cd3c 591c 0e3d a736 47bc
00000020: 71e1 7c3e 9e3e 4b3e 29e5 3d3e ce80 2e3e
00000030: d3bd 9c3e 79b5 313e bc17 7d3e 72bb 8a3e
00000040: c3c1 c73d 2284 7cbc 7a6b f6bd 9ec8 65bd
00000050: c227 da3d 95f5 0f3e ab86 193e a378 173e
00000060: b529 593e 9d49 ff3d 24c5 133e d95a 3d3d
00000070: 78ae b53d c6aa 0abe e957 a93d 214b 1c3e
00000080: cbe5 003e 44d2 7e3e 6c51 413e eeb2 3e3e
00000090: 356e fb3d b234 423e caca 673e 7a85 853e
000000a0: 223f 84bd 77fb 9bbd df22 03bd ed8c 313e
000000b0: ac17 193d 68e1 e3bd 7eb2 ca3c 0565 98bd
000000c0: c697 d8bd 68f8 173d 9f80 07be 02ee 323d
000000d0: 480f 583e 9336 8d3e db8d 463e 7ead 613e
000000e0: 3e78 cabd 7df4 023e e391 123d e9af 32bd
000000f0: 045b 1fbe 3c4d 03be 5611 7d3d a70c 4c3e
00000100: ef04 323e 91e1 553e 7ccd 863e b190 613e
00000110: 2797 b53e b99e a73e 2de5 ad3e deec 9c3e
00000120: 6632 003d e6fa 18bd a669 f0ba a41f d63d
00000130: 054a 0a3e d78d 283e 6d0d 003e 2615 853e
00000140: aed1 4c3e 2135 293e 0d41 e73d c157 0a3e
00000150: 19df 21bd d082 9e3c 5724 3dbe 9f11 813d
00000160: 77fb 133e 5cc7 123e 78f3 183e b68a b03d
00000170: 52d2 fe3d 88e9 17bd 7752 3a3a 1271 13be
00000180: 996a 0dbe 011a 04be b59e fcbd 281e 0bbe
00000190: 708b 36bd 249f 82bd 2898 febd d9fb e3bd
000001a0: 65b2 143e 26f6 d53d 9ef2 bf3d ad8e 003e
000001b0: a0bf 303d 51b8 cb3b 2a58 283d 43d2 b53c
000001c0: 2c64 7b3e cf04 823e 4515 6f3e c206 603e
000001d0: da55 9abb 9e0c 6ebc ee06 9fbc bd72 f7bc
000001e0: 3ad5 28be 933c 16be 673c f03c bea6 b73d
000001f0: 7f2a 9e3c 6e0a 4c3d 4809 da3d 5b91 143e

cos_output.weight f4 [1, 32, 2, 2]
0.09316028 0.09339141 0.03977776 0.037584886 -0.10067244 -0.18089889 -0.15869413 -0.13506478
-0.3520388 -0.27100495 -0.27855307 -0.3032015 -0.43262926 -0.43387914 -0.36706322 -0.41379118
-0.25456545 -0.10361224 0.15909255 0.025036875 -0.31104657 -0.36875272 -0.32914487 -0.35711184
0.022415841 0.09460729 0.10824379 0.13482565 0.25964794 0.17380987 0.27003452 0.14640729
0.10357741 0.019835897 -0.012713048 -0.02600417 0.041802194 -0.061043642 -0.10763836 -0.16487333
0.0076913387 -0.010322516 -0.110874675 0.12790555 -0.19628727 0.13279827 0.011117175 0.1175245
0.09028653 -0.07263983 0.06133078 -0.08064733 -0.43339464 -0.59193593 -0.40954483 -0.5338934
0.14377373 0.07148473 -0.046422854 -0.13328093 0.23144573 0.2518146 0.23024136 0.22975609
-0.1692121 -0.2069445 -0.30960006 -0.2211175 -0.015735975 -0.0731438 -0.0042598997 -0.05966012
0.16454217 -0.07354121 0.14177264 -0.31050745 0.051203545 0.039929364 0.10787689 0.034210067
-0.3545539 -0.30049017 -0.28175923 -0.3431079 0.1075664 0.05691528 0.15127769 -0.039119344
-0.41069567 -0.36592174 -0.38011706 -0.3274346 -0.024071617 0.072042555 0.042774428 0.0167205
0.06600298 0.12346165 0.18970445 0.16313493 0.043385748 0.10165916 0.0785751 0.07250436
-0.3081231 -0.22332901 -0.21817698 -0.26231802 -0.37866563 -0.33375034 -0.40899727 -0.41159767
-0.41887882 -0.3650955 -0.37094915 -0.37858862 -0.059637893 0.113153465 -0.06249157 0.09759028
0.17669778 0.18883374 -0.21051428 -0.22901651 0.100665905 0.03678175 0.05620688 -0.0047723614
00000000: d1ca be3d ff43 bf3d 01ee 223d 9cf2 193d
00000010: 5a2d cebd 8f3d 39be b780 22be 6c4e 0abe
00000020: 6e3e b4be 29c1 8abe 829e 8ebe 3a3d 9bbe
00000030: 9581 ddbe 6825 debe b6ef bbbe 70dc d3be
00000040: 6756 82be a732 d4bd 28e9 223e 221a cd3c
00000050: 7f41 9fbe 28cd bcbe ad85 a8be 5dd7 b6be
00000060: 6da1 b73c 78c1 c13d ecae dd3d bc0f 0a3e
00000070: 93f0 843e 37fb 313e f741 8a3e cbeb 153e
00000080: 6520 d43d e47e a23c 634a 50bc b206 d5bc
00000090: c738 2b3d e608 7abd 8071 dcbd 8ed4 28be
000000a0: a007 fc3b c51f 29bc 4312 e3bd acf9 023e
000000b0: 88ff 48be 45fc 073e d024 363c afb0 f03d
000000c0: 25e8 b83d 31c4 94bd fc35 7b3d 6d2a a5bd
000000d0: e7e5 ddbe 1d89 17bf dcaf d1be 3dad 08bf
000000e0: 6c39 133e 9666 923d e425 3ebd cc7a 08be
000000f0: 1c00 6d3e d8ed 803e 64c4 6b3e 2e45 6b3e
00000100: f045 2dbe 42e9 53be e683 9ebe a06c 62be
00000110: bbe8 80bc 6bcc 95bd a196 8bbb 2c5e 74bd
00000120: be7d 283e c69c 96bd d92c 113e d5fa 9ebe
00000130: cfba 513d f98c 233d 8fee dc3d db1f 0c3d
00000140: 1788 b5be d9d9 99be bf42 90be d7ab afbe
00000150: c64b dc3d ff1f 693d 8ae8 1a3e 9b3b 20bd
00000160: b446 d2be 185a bbbe b49e c2be 82a5 a7be
00000170: d731 c5bc 0c8b 933d 3d34 2f3d 6ef9 883c
00000180: 922c 873d 76d9 fc3d e241 423e d80c 273e
00000190: 41b5 313d ad32 d03d fbeb a03d 2a7d 943d
000001a0: 50c2 9dbe 5cb0 64be c969 5fbe 8c4e 86be
000001b0: 76e0 c1be 53e1 aabe 1768 d1be eebc d2be
000001c0: 4977 d6be cced babe 0ced bdbe 5ed6 c1be
000001d0: dd46 74bd 01bd e73d 29f7 7fbd 6add c73d
000001e0: 43f0 343e a25d 413e 0e91 57be 4e83 6abe
000001f0: ed29 ce3d 76a8 163d 2f39 663d 7861 9cbb

sin_output.weight f4 [1, 32, 2, 2]
-0.05635805 -0.03820894 -0.08840846 -0.07349589 -0.017193262 -0.013707283 -0.041678138 -0.01578551
0.3576573 0.26150388 0.28905642 0.27832657 0.031740524 -0.0101486975 -0.0096240835 0.012892645
0.22773468 0.17946252 -0.03238239 -0.028492933 -0.1901398 -0.25339833 -0.20390877 -0.23783647
-0.012730614 -0.036647994 0.049792927 0.031114422 0.09331327 -0.07081271 0.10513787 -0.046241168
-0.0725101 -0.12985472 -0.14159851 -0.13599357 0.08605458 0.13515995 0.11611958 0.15313286
0.09292931 -0.20758179 0.08543933 0.021462653 -0.13298638 0.04318901 -0.101731904 -0.062258698
0.044536453 0.12730414 -0.09067755 0.115876645 0.025739286 0.0704293 0.05159848 0.100985736
0.024120888 -0.14659436 -0.08807094 0.13399541 -0.0044331113 0.02949753 0.052970167 0.021939829
0.08508014 0.06503274 0.09770521 0.10567102 0.27548817 0.24493729 0.27702737 0.23608139
-0.098494045 -0.016628945 0.09473506 0.13134472 0.2025896 0.16558796 0.16116911 0.2293323
-0.2656165 -0.20728771 -0.16527736 -0.24943654 -0.01590886 0.047424905 0.0003441111 -0.04864175
-0.21585394 -0.15661825 -0.18901984 -0.14303218 0.0540625 -0.078111514 -0.102661245 0.048553627
-0.038111497 -0.0015957403 0.00088359206 -0.018868176 -0.019950472 0.046057526 -0.014872781 0.022831876
0.31800583 0.24117284 0.21142101 0.34981993 0.012902647 0.011869968 0.015335161 -0.012549958
-0.29931194 -0.27697545 -0.22799219 -0.2670114 0.03883746 0.018946173 -0.031616796 0.03060604
0.0127464775 0.016067622 -0.08063695 -0.026051965 -0.099431954 -0.16200212 -0.18123433 -0.19922362
00000000: b3d7 66bd fa80 1cbd 7f0f b5bd 0385 96bd
00000010: e2d8 8cbc 8394 60bc b2b6 2abd 9d50 81bc
00000020: dc1e b73e d6e3 853e 34ff 933e d280 8e3e
00000030: 5a02 023d b946 26bc 55ae 1dbc ac3b 533c
00000040: 4833 693e 06c5 373e 66a3 04bd 036a e9bc
00000050: 02b4 42be 6dbd 81be 76cd 50be 678b 73be
00000060: 1194 50bc 351c 16bd abf3 4b3d ace3 fe3c
00000070: 071b bf3d 4106 91bd 8652 d73d 6167 3dbd
00000080: 2d80 94bd a3f8 04be 33ff 10be e641 0bbe
00000090: 623d b03d 5f67 0a3e 1ad0 ed3d dcce 1c3e
000000a0: b951 be3d 5290 54be d1fa ae3d 72d2 af3c
000000b0: 952d 08be f6e6 303d d158 d0bd fa02 7fbd
000000c0: db6b 363d 045c 023e 27b5 b9bd bc50 ed3d
000000d0: 32db d23c 3d3d 903d ee58 533d 9cd1 ce3d
000000e0: 2b99 c53c d51c 16be 895e b4bd 1836 093e
000000f0: a243 91bb cea4 f13c 3ff7 583d 28bb b33c
00000100: 7f3e ae3d e32f 853d ab19 c83d 0c6a d83d
00000110: c90c 8d3e d7d0 7a3e 88d6 8d3e 52bf 713e
00000120: 3fb7 c9bd 6d39 88bc 7504 c23d 3b7f 063e
00000130: a673 4f3e e48f 293e 8409 253e 16d6 6a3e
00000140: e3fe 87be 3b43 54be 783e 29be 4b6c 7fbe
00000150: 4c53 82bc 9e40 423d cf69 b439 923c 47bd
00000160: d108 5dbe 8960 20be 6b8e 41be 0777 12be
00000170: a470 5d3d eef8 9fbd 0f40 d2bd 2be0 463d
00000180: cd1a 1cbd 2928 d1ba dca0 673a 6f91 9abc
00000190: 2c6f a3bc d1a6 3c3d f7ac 73bc ea09 bb3c
000001a0: a9d1 a23e 03f6 763e c07e 583e 991b b33e
000001b0: a065 533c 417a 423c 5440 7b3c 579e 4dbc
000001c0: 6a3f 99be bacf 8dbe c976 69be b8b5 88be
000001d0: 0714 1f3d 0135 9b3c 9d80 01bd 85b9 fa3c
000001e0: 9ad6 503c 3fa0 833c fc24 a5bd ee6a d5bc
000001f0: fba2 cbbd e2e3 25be 7e95 39be 4701 4cbe
