Experts/Generative/pretrained_models/jacquard/GGCNNRGB_Jacquard.pth (torch, 277130 bytes, 16 tensors)

conv1.weight f4 [32, 3, 9, 9]
0	0xbd0fe631	-0.035131637
1	0xbe1793d3	-0.14802484
2	0xbe529346	-0.20563993
3	0xbe55229d	-0.20813985
4	0xbe1a2eee	-0.15056965
5	0xbddbf605	-0.10740284
6	0xbd44a7c3	-0.048011553
7	0xbc205540	-0.00978595
8	0x3d5769c2	0.052591093
9	0x3caa6dda	0.020804334
10	0xbc92bdb1	-0.017912718
11	0xbdab542d	-0.08365665
12	0xbe24ca1d	-0.16092725
13	0xbdbd0697	-0.092297725
14	0xbdfcb543	-0.123392604
15	0xbd4591ac	-0.048234627
16	0xbcf470d2	-0.029838953
17	0x3c45e965	0.012079571
18	0x3e00e0b0	0.12585711
19	0x3bfb9cc2	0.007678599
20	0xbd0a6e7c	-0.033796772
21	0xbd9a64e5	-0.07538775
22	0xbe0c57b8	-0.13705337
23	0xbdab1544	-0.083536655
24	0xbd919c14	-0.07109848
25	0xbba1726c	-0.00492697
26	0xbd826b6d	-0.06368146
27	0x3d3d12f5	0.046160657
28	0x3cc416f7	0.023936732
29	0xbc8ef5f5	-0.017451266
30	0xbe05c18a	-0.1306211
31	0xbe046d3f	-0.12932299
32	0xbe16dc17	-0.14732395
33	0xbe0f8b7a	-0.1401805
34	0xbdf63ae7	-0.120229535
35	0xbe1b17ae	-0.15145752
36	0x3e27e399	0.16395415
37	0x3bacef8d	0.00527758
38	0xbbeb2da4	-0.0071770716
39	0xbd85876f	-0.065199725
40	0xbda302d5	-0.079595245
41	0xbdd7c99c	-0.10536501
42	0xbe1bae03	-0.15203099
43	0xbe1175cc	-0.14205092
44	0xbe42780c	-0.18991107
45	0x3dbdabca	0.09261282
46	0x3cc9743d	0.02459156
47	0x3d76b6f3	0.060233068
48	0xbbc35c3d	-0.0059619234
49	0xbd2cf485	-0.04222538
50	0xbd2973a1	-0.041370038
51	0xbd167bfc	-0.036739334
52	0xbdbe6da4	-0.09298256
53	0xbe4ab80f	-0.19796775
54	0x3e231976	0.15927681
55	0x3d18792a	0.037224926
56	0x3d9d64dc	0.07685253
57	0x3d968b9a	0.07350846
58	0x3d2066b7	0.039160457
59	0x3c5ed586	0.013600713
60	0x3cdd67cb	0.027027031
61	0xbd4dce9c	-0.050245866
62	0xbdcb40ee	-0.09924494
63	0x3e6160f9	0.22009648
64	0x3dd4369b	0.10361978
65	0x3e1f0dc9	0.15532602
66	0x3e17af10	0.14812875
67	0x3d999aa0	0.075001955
68	0x3db10c2f	0.08644902
69	0x3d76127e	0.06007623
70	0xbd9de4c3	-0.077096485
71	0xbe05e7e2	-0.13076738
72	0x3e8f668c	0.28007925
73	0x3e9210c9	0.2852843
74	0x3e967b8d	0.29391137
75	0x3e9fe0bb	0.31226143
76	0x3e7e8980	0.2485714
77	0x3e6a2af2	0.22867945
78	0x3e49e19a	0.19714966
79	0x3deb8ce4	0.11501482
80	0xbd2423d1	-0.04007322
81	0x3d105de5	0.035245795
82	0xbcaf413a	-0.021393407
83	0xbe053c34	-0.13011247
84	0xbe53bbc1	-0.20677091
85	0xbe338ee1	-0.17534973
86	0xbe56dea4	-0.20983368
87	0xbe3f0ea7	-0.18657933
88	0xbda72dc3	-0.08163025
89	0xbdefd355	-0.1171023
90	0x3de19381	0.11014462
91	0x3ca5673c	0.020190828
92	0xbdd322ee	-0.10309397
93	0xbdc8a5bc	-0.09797236
94	0xbdfa866f	-0.122326724
95	0xbdc8f0c5	-0.09811548
96	0xbdc70b4d	-0.09718952
97	0xbda431f4	-0.0801734
98	0xbdad5815	-0.08464066
99	0x3e8c83aa	0.27444202
100	0x3e0bed68	0.13664782
101	0x3d0fa939	0.035073493
102	0x3c55f044	0.013057772
103	0xbce3728a	-0.027764577
104	0xbcf995cd	-0.030466938
105	0xbddeb891	-0.10875047
106	0xbda47d4c	-0.08031711
107	0xbd28ae75	-0.041182
108	0x3e8baa03	0.27278146
109	0x3da23832	0.07920875
110	0x3c7ac57a	0.015305871
111	0xbc844633	-0.016146755
112	0xbd6c2363	-0.057650935
113	0xbdc7819a	-0.097415164
114	0xbe2d442b	-0.16920535
115	0xbde4fe30	-0.11181295
116	0xbe2d46cc	-0.16921538
117	0x3e4428fe	0.19156262
118	0x3dcfdafd	0.101491906
119	0x3ccd5e8b	0.025069496
120	0x3d0ba9b1	0.034097377
121	0xbcaa0629	-0.02075489
122	0xbd771bd5	-0.060329277
123	0xbdec3028	-0.115326226
124	0xbdf07fae	-0.11743103
125	0xbe2071d4	-0.15668422
126	0x3e1361a6	0.14392719
127	0x3dac96d1	0.084272034
128	0x3c9da509	0.019243734
129	0x3a0c2d5e	0.00053473364
130	0xbd77c9fb	-0.060495358
131	0xbd065e58	-0.032804817
132	0xbcc4038d	-0.023927474
133	0xbd8e99ee	-0.069629535
134	0xbe3bbee6	-0.1833454
135	0x3e209968	0.1568352
136	0x3e10b836	0.14132771
137	0x3e171a8f	0.14756225
138	0x3d87ab6a	0.066244915
139	0x3cf92730	0.030414194
140	0x3d00e249	0.031465802
141	0xba1ded77	-0.000602446
142	0xbd87c133	-0.06628647
143	0xbdc76b0c	-0.097372144
144	0x3e41d155	0.1892751
145	0x3e590f8c	0.21197337
146	0x3e2cc234	0.16870958
147	0x3e3e6e3b	0.18596737
148	0x3e145024	0.14483696
149	0x3dfff0e3	0.12497117
150	0x3daaa3fc	0.08332059
151	0x3c7be609	0.015374669
152	0xbd4bce60	-0.04975736
153	0x3e851515	0.25992647
154	0x3ea2f239	0.31825426
155	0x3eb6fc92	0.3573957
156	0x3ea03bf4	0.3129574
157	0x3e867f8c	0.26269186
158	0x3e8ece4d	0.2789177
159	0x3e4b7a19	0.19870795
160	0x3e1c46f9	0.15261449
161	0x3d8e25af	0.06940781
162	0x3c61427a	0.013748759
163	0xbe2dce56	-0.16973242
164	0xbe71e898	-0.23623884
165	0xbe85ffa3	-0.26171598
166	0xbe8afc53	-0.27145633
167	0xbe9a9187	-0.30189154
168	0xbe58f944	-0.21188837
169	0xbe4c72ce	-0.1996567
170	0xbe141939	-0.14462747
171	0x3dbe5fda	0.09295626
172	0xbd8c6882	-0.06855871
173	0xbe21f663	-0.15816645
174	0xbe2c8a36	-0.16849598
175	0xbe38ef23	-0.18059973
176	0xbe323d28	-0.17406142
177	0xbe5ee58f	-0.21767257
178	0xbe17beb5	-0.14818843
179	0xbdc247bb	-0.09486338
180	0x3e3ba8b2	0.18326071
181	0x3d73148f	0.059345778
182	0xbc289934	-0.010290433
183	0xbdea73d1	-0.114478715
184	0xbde45b83	-0.11150267
185	0xbe15c8e7	-0.1462742
186	0xbe076718	-0.13222921
187	0xbe0275cf	-0.12740253
188	0xbe23b38c	-0.1598646
189	0x3e61fb41	0.22068502
190	0x3daa20c6	0.08307032
191	0xbd3c7fdd	-0.046020377
192	0xbc9210ff	-0.01783037
193	0xbe0c3b31	-0.13694455
194	0xbe1a1e81	-0.15050699
195	0xbe58aa5d	-0.21158738
196	0xbe71bf83	-0.23608212
197	0xbe7a6714	-0.24453384
198	0x3e9da1cb	0.307875
199	0x3e2d2b56	0.16911063
200	0x3d20487d	0.03913163
201	0xb9573332	-0.0002052307
202	0xbc281158	-0.010258041
203	0xbdc14e49	-0.0943876
204	0xbe18b146	-0.14911374
205	0xbe37263e	-0.17885682
206	0xbe893775	-0.26800123
207	0x3e8484dd	0.25882617
208	0x3e1f7035	0.15570147
209	0x3dbcc98d	0.0921813
210	0x3d361342	0.04445196
211	0xbce80463	-0.028322404
212	0xbcfe76db	-0.031062534
213	0xbe042680	-0.12905312
214	0xbe1f2bb1	-0.1554401
215	0xbe631275	-0.2217501
216	0x3e65eca5	0.22453554
217	0x3e46cd18	0.19414175
218	0x3dfd9ebc	0.12383792
219	0x3dbb2185	0.09137253
220	0x3d4fa5bb	0.050695162
221	0x3d1fc73c	0.039008364
222	0xbd30cd89	-0.043164764
223	0xbd06c1a3	-0.03289951
224	0xbe2b45ea	-0.16725889
225	0x3e943433	0.28946075
226	0x3e8dba4c	0.27681196
227	0x3e8e7a8a	0.27827865
228	0x3e590165	0.21191938
229	0x3e5b7a59	0.2143339
230	0x3e093430	0.13398814
231	0x3d8026b6	0.062573835
232	0x3d394bf8	0.045238465
233	0xbd649f71	-0.055816118
234	0x3e9bccc6	0.30429667
235	0x3eb4853f	0.3525791
236	0x3eceb8d5	0.4037539
237	0x3ef69da5	0.48167148
238	0x3ed8fe02	0.42381293
239	0x3eda236c	0.4260515
240	0x3e959be0	0.29220486
241	0x3e3d300c	0.1847536
242	0x3d9b7636	0.07590906
243	0x3bb9540f	0.0056557725
244	0x3ccf6770	0.025317878
245	0x3d8ca5ac	0.06867537
246	0xbc3b3a0f	-0.0114274165
247	0x3d30b9fe	0.043146126
248	0x3cd5afb0	0.02608475
249	0x3cd83a8f	0.02639511
250	0x3da130fb	0.078706704
251	0x3d65f0d2	0.056137867
252	0xbd149c27	-0.03628173
253	0x3c9680c3	0.018371945
254	0x3cb83f85	0.022491226
255	0x3d4e124f	0.05031043

conv1.bias f4 [32]
0	0xbb0a7ec8	-0.0021132696
1	0x3efe0f61	0.49621108
2	0x3e42bfb0	0.19018435
3	0xbf5ca0e5	-0.86183006
4	0xbdc28d60	-0.094996214
5	0x3b7c5589	0.0038503131
6	0xbdd93596	-0.10605924
7	0xbd71e6b4	-0.059057906
8	0xbdb09548	-0.08622223
9	0xbd6b3cf8	-0.05743119
10	0xbe38c8d5	-0.18045361
11	0xbd5198df	-0.05117118
12	0x3d67b2f2	0.05656714
13	0xbd88a7ef	-0.06672656
14	0xbcdda6f6	-0.027057152
15	0xbd8e6fc6	-0.06954913
16	0xbdb35d7e	-0.087580666
17	0xbf5e870a	-0.86924803
18	0xbee0eb73	-0.43929633
19	0x3bbe25f3	0.0058028637
20	0xbf75369a	-0.9578644
21	0x3d0c370b	0.03423218
22	0xbdbb4c90	-0.091454625
23	0xbdd26661	-0.102734335
24	0xbc3f4201	-0.011673451
25	0xbf061471	-0.5237494
26	0xbf103436	-0.5632967
27	0xbe92dd14	-0.28684294
28	0xbf43ccd2	-0.76484406
29	0xbe8a2b47	-0.26986143
30	0xbf4c55b4	-0.7981827
31	0xbeda42aa	-0.42628986

conv2.weight f4 [16, 32, 5, 5]
0	0xbc272cc9	-0.010203549
1	0xbca8f4e4	-0.020624585
2	0xbd9e6ce2	-0.077356115
3	0x3c08ff9a	0.008361721
4	0xbf029616	-0.5101026
5	0xbea2d6da	-0.31804544
6	0xbd2ce56d	-0.042210985
7	0xbe8eddef	-0.27903697
8	0xbe124659	-0.14284648
9	0xbf0e2be1	-0.55535704
10	0x3e5ed98c	0.21762675
11	0x3ec49967	0.38398287
12	0x3e83db00	0.2575302
13	0x3ea57b6b	0.32320723
14	0xbe1f24bd	-0.15541358
15	0xbe757d80	-0.23973656
16	0xbd1cba47	-0.038263585
17	0xbe0263f5	-0.12733443
18	0xbdeadf8a	-0.11468418
19	0xbedf2e52	-0.43590027
20	0xbe8cf4ec	-0.2753061
21	0x3d763f5c	0.060119018
22	0x3d82fcda	0.06395884
23	0x3dbe02c7	0.092778735
24	0xbe066fef	-0.13128637
25	0x3e32f45a	0.17476025
26	0x3d893381	0.06699277
27	0x3d8cdc22	0.068779245
28	0x3d80930f	0.06278049
29	0xbccdac5a	-0.025106598
30	0xbc5da175	-0.013527264
31	0x3dc41da5	0.09575967
32	0x3d2a20db	0.04153524
33	0x3d2bec7f	0.041973587
34	0xbd1b2de7	-0.037885573
35	0x3e2e70dd	0.17035241
36	0x3dbaf0ee	0.09127985
37	0x3e49c5cf	0.19704364
38	0x3db3a887	0.087723784
39	0x3de331e7	0.110935025
40	0x3d91bd01	0.07116128
41	0x3d3a129c	0.045427904
42	0x3d83c63e	0.06434296
43	0x3e3d0940	0.1846056
44	0x3d145e74	0.03622289
45	0x3d14b94d	0.03630953
46	0x3dc8a88b	0.09797772
47	0x3e0ef31c	0.13959926
48	0x3e19e421	0.1502843
49	0x3d7e9e74	0.06216283
50	0x3d53cd17	0.05170926
51	0xbdf5bc25	-0.11998776
52	0xbc70fea4	-0.014709149
53	0x3a711ff2	0.00091981806
54	0xbd9f08f7	-0.07765382
55	0x3d0e9940	0.03481412
56	0xbd167b72	-0.03673882
57	0x3d4282ea	0.04748813
58	0xbd384bb9	-0.04499409
59	0xbe034ada	-0.12821522
60	0x3d46bbce	0.04851895
61	0x3dd7368b	0.1050845
62	0x3de7cd60	0.11318469
63	0x3e1cd4a4	0.15315491
64	0x3dd18ffb	0.1023254
65	0x3e53a9c4	0.20670229
66	0x3e151d72	0.14562014
67	0x3e5506df	0.20803402
68	0x3e48a394	0.1959365
69	0x3dc32ad1	0.09529651
70	0x3e0dfbc2	0.13865569
71	0x3e281a3c	0.16416258
72	0x3e4e9050	0.20172238
73	0x3e1902b8	0.14942443
74	0x3e37295f	0.17886876
75	0x3b91983f	0.004443198
76	0xbdf029ec	-0.11726746
77	0xbd8225b5	-0.06354848
78	0xbab555da	-0.001383479
79	0xbe01ce50	-0.12676358
80	0xbdda01a1	-0.10644842
81	0xbd165f83	-0.03671218
82	0xbdd383b9	-0.103278585
83	0xbcfd5b35	-0.03092728
84	0xbe2338ae	-0.1593959
85	0xbdb2959e	-0.087199435
86	0xbd21ec70	-0.039532125
87	0xbe28f4fb	-0.16499703
88	0xbdbf314e	-0.09335576
89	0xbe1e92c0	-0.15485668
90	0x3e3d882d	0.18508978
91	0x3e00ed60	0.12590551
92	0x3d1d20ed	0.03836148
93	0x3e2725b5	0.16322978
94	0xbb1aa9be	-0.002359971
95	0x3c8175d5	0.015803257
96	0xbd448395	-0.04797705
97	0xbbe95c06	-0.0071215658
98	0xbe0a0b12	-0.13480785
99	0xbdeda5b3	-0.1160387
100	0xbecb1284	-0.39662564
101	0xbddfec77	-0.10933774
102	0xbd8a2d17	-0.067468815
103	0xbecf9605	-0.40544143
104	0xbf58e200	-0.8471985
105	0xbeeefc17	-0.46676704
106	0xbea93a0f	-0.33052108
107	0xbeb99480	-0.3624611
108	0xbf16c407	-0.58892864
109	0xbf46fe20	-0.77731514
110	0xbf4b3d65	-0.79390556
111	0xbf0e81c3	-0.5566675
112	0xbed25003	-0.4107667
113	0xbf22541e	-0.634096
114	0xbeb2df15	-0.34935823
115	0xbf80df78	-1.0068197
116	0xbf63f579	-0.89046437
117	0xbf16825f	-0.5879268
118	0xbe504b5e	-0.2034125
119	0x3d933924	0.07188633
120	0xbeacf086	-0.33777255
121	0xbe90b5c2	-0.2826367
122	0xbc47d05b	-0.012195672
123	0x3e31d47a	0.1736621
124	0x3e9cc3bf	0.30618092
125	0xbe945769	-0.2897294
126	0xbe7b5680	-0.24544716
127	0xbdea5782	-0.11442472
128	0xbe51c4a5	-0.2048517
129	0xbec63121	-0.38709357
130	0x3b045b3b	0.002019598
131	0xbdf3ebe7	-0.11910229
132	0x3d7b26fa	0.061316468
133	0x3d167b75	0.03673883
134	0xbd1a8665	-0.037725825
135	0x3db13baa	0.08653958
136	0xbd4ba0da	-0.049713947
137	0x3e201f51	0.15636946
138	0xbc0966b9	-0.008386307
139	0xbd81ca53	-0.063374184
140	0x3e328da3	0.17436843
141	0x3d0dbaa0	0.034601808
142	0x3c73e9c7	0.01488728
143	0x3c2b1157	0.010441146
144	0xbd18d7b4	-0.037315086
145	0x3e40ce1b	0.18828623
146	0xbe7ff9b3	-0.24997596
147	0xbcc2d86a	-0.023784835
148	0xbd983b97	-0.07433241
149	0xbe3c6e83	-0.18401532
150	0xbe8bede6	-0.2732994
151	0xbe30346a	-0.17207494
152	0x3dc8fa57	0.098133735
153	0x3d29b1dc	0.041429386
154	0xbe47c552	-0.19508865
155	0xbee8452b	-0.4536527
156	0xbdc92d66	-0.09823112
157	0xbcd3278c	-0.025775693
158	0xbe87b99a	-0.2650879
159	0xbe91fcd1	-0.28513196
160	0x3ca6901d	0.02033239
161	0x3da3153c	0.079630345
162	0xbcd33041	-0.025779845
163	0xbe133524	-0.1437574
164	0xbddf435c	-0.1090152
165	0xbed46e19	-0.41490248
166	0xbea0f110	-0.31433916
167	0xbe94af30	-0.29039907
168	0xbe0d68de	-0.13809535
169	0xbda253b8	-0.07926124
170	0xbe93910a	-0.28821594
171	0xbe06585c	-0.13119644
172	0x3ce12c3a	0.02748691
173	0x3e28d5a5	0.16487749
174	0x3e14d182	0.14533046
175	0x3dc78e01	0.09743882
176	0x3de05f97	0.10955732
177	0x3db8d7cc	0.09025535
178	0x3e0a967e	0.1353397
179	0x3d16a4be	0.036778204
180	0xbc67e738	-0.014154248
181	0xbd2d51e1	-0.042314414
182	0xbca765d3	-0.020434296
183	0xbc115f02	-0.008872749
184	0xbd2bbf98	-0.041930765
185	0x3db4dc77	0.08831113
186	0x3d90676b	0.070509754
187	0x3ddbfd28	0.10741645
188	0x3e6c1946	0.23056516
189	0x3e13a101	0.14416887
190	0x3bc60131	0.0060426225
191	0xbc16af47	-0.009197063
192	0xbc1dc661	-0.009629817
193	0xbc44fabc	-0.01202267
194	0xbd6f90b8	-0.058487624
195	0xbc33dee8	-0.010978438
196	0xbcceaf1c	-0.025229983
197	0x3c5e781f	0.013578444
198	0x3dcb3d8a	0.09923847
199	0xbd82269c	-0.063550204
200	0xbe368251	-0.1782315
201	0xbcda3154	-0.02663485
202	0xbd8ae2bd	-0.06781528
203	0x3ce1a196	0.02754287
204	0xbe1e21db	-0.15442602
205	0xbe40cd5c	-0.18828338
206	0xbe2f0353	-0.17091112
207	0xbbbba2ea	-0.005726208
208	0x3c8b1c45	0.016981253
209	0xbd8735c2	-0.0660205
210	0xbe08d2d0	-0.13361669
211	0x3d0ea7a8	0.03482786
212	0x3cbbb508	0.02291347
213	0x3d07f6e1	0.033194426
214	0xbe040092	-0.12890843
215	0xba19ef9f	-0.0005872193
216	0xbd3e34c3	-0.046437036
217	0x3cc98a43	0.024602061
218	0x3d206ee5	0.039168257
219	0xbdb142a4	-0.08655289
220	0x3e9b69d1	0.3035417
221	0x3e4dd59a	0.20101014
222	0xbca67329	-0.020318585
223	0x3bbcba16	0.005759488
224	0xbac5a556	-0.0015079181
225	0x3c2428b9	0.010019475
226	0x3e2e56dc	0.17025322
227	0x3dc0a991	0.09407342
228	0x3e41201a	0.18859902
229	0x3d1980e3	0.03747643
230	0xbd83adb8	-0.064296186
231	0x3d8afcb5	0.06786481
232	0x3d724383	0.059146415
233	0x3dd607de	0.10450719
234	0xbe79719a	-0.24359742
235	0xbbfb9294	-0.0076773856
236	0x3e05b10f	0.13055824
237	0xbce879af	-0.028378336
238	0xbdad81dc	-0.08472034
239	0xbe6eba41	-0.23313238
240	0xbe896f3b	-0.26842675
241	0xbe6e8d80	-0.23296165
242	0xbe4ca218	-0.19983709
243	0xbd254e7b	-0.040358048
244	0xbe5fe985	-0.21866424
245	0xbdb1bb56	-0.086783096
246	0xbe70a23b	-0.23499386
247	0xbe0aa909	-0.13541044
248	0xbda0d350	-0.07852805
249	0xbe2ecd77	-0.17070566
250	0x3d0ec6b4	0.034857467
251	0x3d876a32	0.06612052
252	0xbc213369	-0.009838917
253	0x3df834f7	0.12119477
254	0xbce97dae	-0.028502312
255	0xbd9951f8	-0.074863374

conv2.bias f4 [16]
0	0x3e6d89ab	0.23197047
1	0x3ee708f8	0.4512403
2	0x3ee03128	0.43787503
3	0x3e2db01f	0.16961716
4	0x3f20a6dc	0.6275461
5	0x3ebed0cb	0.3726867
6	0x3e538be3	0.20658831
7	0xbe1fdccf	-0.15611576
8	0x3e49e171	0.19714905
9	0x3d873d70	0.06603515
10	0x3e13a579	0.14418592
11	0x3ea6ee3f	0.32603642
12	0x3e8e6bf8	0.2781675
13	0x3de8087e	0.11329745
14	0x3dc0db05	0.09416775
15	0x3bfcc9b8	0.0077144764

conv3.weight f4 [8, 16, 3, 3]
0	0x3ea5ed02	0.32407385
1	0xbd912b03	-0.07088282
2	0x3e2847ae	0.16433594
3	0xbdfab934	-0.12242356
4	0xbf11caa5	-0.56949836
5	0xbe875073	-0.26428565
6	0xbbd6b94c	-0.006552851
7	0xbe1da560	-0.15395117
8	0xbc2e3b31	-0.0106342295
9	0xbe20cc5a	-0.15702954
10	0xbe48db6c	-0.19614953
11	0xbe58d12a	-0.2117354
12	0x3c0c8580	0.008576751
13	0x3e14f806	0.14547738
14	0x3e68264d	0.2267086
15	0x3db67cdf	0.08910536
16	0x3e764456	0.24049506
17	0x3e4ff163	0.20306925
18	0xbedaa4a6	-0.42703742
19	0xbde1c04d	-0.110230066
20	0xbec1a556	-0.37821454
21	0x3e52ab9a	0.20573273
22	0x3e8ab1a9	0.2708867
23	0x3cd31715	0.025767842
24	0x3e929969	0.28632668
25	0x3e98ccd7	0.2984378
26	0x3ea1e4e6	0.31619948
27	0xbe2a8b28	-0.16654646
28	0xbea90231	-0.33009484
29	0xbcd5ff72	-0.026122782
30	0xbe26e6fe	-0.16299054
31	0xbecb5c1a	-0.39718705
32	0xbdf3e84d	-0.11909542
33	0x3d483a4d	0.048883725
34	0x3d32fab1	0.04369611
35	0xbd0be178	-0.03415057
36	0xbe32f579	-0.17476453
37	0xbe63d37e	-0.22248647
38	0xbe069a32	-0.13144758
39	0x3e08780e	0.13327047
40	0x3e3bf092	0.18353489
41	0x3e0164ca	0.12636104
42	0x3cc6e4ed	0.024279082
43	0x3bf9a9bb	0.0076191104
44	0xbb808e8b	-0.0039232424
45	0xbe381f4b	-0.17980687
46	0xbe9d95f4	-0.30778468
47	0xbe7974ef	-0.24361013
48	0xbcc3d9fd	-0.023907656
49	0x3d8f33a2	0.0699227
50	0xbc388321	-0.011261732
51	0xbc2671ab	-0.0101589365
52	0x3e0924d4	0.13392955
53	0x3db633d8	0.08896607
54	0xbd6986b5	-0.057013232
55	0xbe067d35	-0.131337
56	0xbe3da0b9	-0.18518342
57	0xbe03f0cd	-0.12884827
58	0x3c324a94	0.010882039
59	0xbdb69670	-0.089154124
60	0xbd6e8ad9	-0.058237884
61	0x3c146524	0.009057317
62	0xbcc1c541	-0.023653628
63	0x3d6b9a6e	0.057520323
64	0xbdfa1a23	-0.122120164
65	0x3d865f42	0.06561138
66	0x3db84cf7	0.08999055
67	0xbe032f58	-0.12811029
68	0xbd417308	-0.047228843
69	0x3e107890	0.14108491
70	0x3e0d7598	0.1381439
71	0xbbc33801	-0.005957604
72	0xbd95e663	-0.073193334
73	0xbe0aa88e	-0.13540861
74	0x3e0e0700	0.13869858
75	0xbe9b86c2	-0.3037625
76	0xbec6d82e	-0.38836807
77	0xbcfc3d48	-0.03079094
78	0x3cd5e82f	0.02611169
79	0xbd3330d1	-0.043747727
80	0x3be8890b	0.007096415
81	0x3d039002	0.03211976
82	0x3cc5f218	0.02416329
83	0xbc8372c0	-0.016045928
84	0xbd286fbe	-0.04112219
85	0xbdc14e1d	-0.09438727
86	0x3beaaed0	0.0071619526
87	0x3d6f93e2	0.05849064
88	0x3c8ffef1	0.01757762
89	0x3e0e1476	0.13874993
90	0x3c170937	0.009218506
91	0x3e84d869	0.25946358
92	0x3ead67c0	0.33868217
93	0xbe388578	-0.18019664
94	0x3ea6b413	0.3255926
95	0x3e6a8ce9	0.22905315
96	0x3bf3ca9b	0.007439924
97	0x3dfd6abc	0.123738736
98	0x3e31a1dd	0.17346902
99	0x3df142cd	0.11780319
100	0x3c5e7a06	0.013578897
101	0xbd9900a2	-0.07470824
102	0xbc575186	-0.013141995
103	0xbdce6471	-0.100777514
104	0x3aa53a40	0.0012605861
105	0x3dc7d7ec	0.09757981
106	0xbca3c938	-0.01999341
107	0xbdd399be	-0.10332058
108	0xbc6e5ffb	-0.014549251
109	0xbd415d91	-0.047208373
110	0x3e19591e	0.14975402
111	0xbeaf354f	-0.3422036
112	0xbdd88922	-0.10573031
113	0x3db18ec3	0.08669808
114	0xbd876a51	-0.06612075
115	0x3d45b123	0.048264634
116	0x3cbe8952	0.023258839
117	0x3ed9495b	0.42438778
118	0x3e2bd510	0.16780496
119	0x3ea04464	0.31302178
120	0x3e32230b	0.1739618
121	0x3cd67ebf	0.026183484
122	0x3e070e6e	0.13189098
123	0x3d5b7c9d	0.053585637
124	0xbd8283ab	-0.0637277
125	0x3c7ee70d	0.0155580165
126	0x3d0cf271	0.034410898
127	0xbce6b30c	-0.028161548
128	0xbd9a2247	-0.07526069
129	0xbd4db0f9	-0.050217602
130	0xbd8c37d5	-0.068465866
131	0xbe45b84c	-0.19308585
132	0x3d98fc5b	0.07470008
133	0xbc66d5fb	-0.014089103
134	0xbe08b61a	-0.13350716
135	0x3cf87da0	0.03033334
136	0x3da4d4f5	0.08048431
137	0x3dcad61c	0.09904119
138	0x3cd84a90	0.026402742
139	0x3db60cfc	0.08889195
140	0xbc066eee	-0.008205159
141	0x3d92826c	0.07153782
142	0x3d87f4bf	0.066384785
143	0xbc896cff	-0.016775606
144	0x3d25ffcb	0.040527146
145	0x3cbf7b23	0.023374146
146	0x3d444d62	0.04792536
147	0x3ccb89bd	0.024845952
148	0xbc9b7fc9	-0.018981831
149	0x3c3d093b	0.011537845
150	0x3d3d45d2	0.046209164
151	0x3df69776	0.12040608
152	0x3d8f8964	0.07008627
153	0xbcb4f8bc	-0.022091262
154	0x3dc1e564	0.09467581
155	0x3e55c8ce	0.20877382
156	0xbdcc055b	-0.09961959
157	0x3cfbab32	0.03072128
158	0x3dc99ebf	0.098447315
159	0x3d317829	0.043327484
160	0x3c827886	0.01592661
161	0xbcd18abc	-0.025578849
162	0x3ea6bea4	0.32567322
163	0x3d4acd27	0.049512055
164	0xbd8938d4	-0.06700292
165	0x3d1dd350	0.0385316
166	0xbe81076b	-0.25200972
167	0xbe7d427c	-0.24732393
168	0x3ea1afe5	0.3157951
169	0xbb374cda	-0.002796939
170	0xbdb7f133	-0.08981552
171	0x3d290a73	0.04126973
172	0x3d8a8f6c	0.06765637
173	0x3e13022e	0.143563
174	0xbd1fe28a	-0.039034404
175	0xbddf445d	-0.10901711
176	0xbc40aa77	-0.011759392
177	0x3e5325f6	0.2061995
178	0x3ea2d754	0.31804907
179	0x3eea11d1	0.45716718
180	0x3e0cc110	0.13745522
181	0x3dfb6e08	0.12276846
182	0x3e5f9cd1	0.21837164
183	0xbda089b7	-0.07838767
184	0xbd054e4e	-0.03254538
185	0x3b1c39aa	0.0023838081
186	0x3e65649a	0.22401658
187	0x3e146f3a	0.14495555
188	0x3e0b22f9	0.1358756
189	0x3d773e57	0.060362186
190	0x3d5bd163	0.053666484
191	0x3d7ebf5c	0.062194213
192	0xbdaef212	-0.08542265
193	0xbde5eb82	-0.1122656
194	0xbda93eb4	-0.08263913
195	0x3db1691f	0.086626284
196	0x3d964eb3	0.073392294
197	0x3d02c4ee	0.031926088
198	0x3e7e21c6	0.24817571
199	0x3de2230d	0.11041842
200	0x3e16281f	0.14663742
201	0x3d460098	0.04834041
202	0xbd15b419	-0.036548708
203	0xbd6ef6d5	-0.058340866
204	0x3e91196c	0.28339708
205	0x3deca2d0	0.115544915
206	0x3d5e4ad4	0.05427058
207	0xbc7fab97	-0.015604875
208	0x3d7e9426	0.062153004
209	0x3d94b58e	0.07261191
210	0xbddf01fd	-0.10889051
211	0x3e22a24b	0.15882222
212	0x3e6177f8	0.2201842
213	0x3d7fd2b5	0.062456805
214	0xbc2e7fc2	-0.010650577
215	0xbd844c32	-0.064598456
216	0x3da9b675	0.08286754
217	0x3e014607	0.1262437
218	0x3e295108	0.16534817
219	0x3cd43da4	0.025908299
220	0x3d13549a	0.035969354
221	0x3dda3ba7	0.10655909
222	0x3d265fc4	0.040618673
223	0x3d4da22c	0.050203487
224	0x3d17c3ba	0.037051894
225	0xbc6d05fb	-0.014466758
226	0x3d8655a6	0.06559305
227	0x3cf3fc02	0.029783253
228	0x3dd9d539	0.10636372
229	0x3dcdc099	0.10046501
230	0x3d471ac9	0.04860953
231	0x3ca1b29f	0.019738493
232	0x3c756ae7	0.014979101
233	0x3e70baff	0.23508833
234	0x3e967c91	0.29391912
235	0x3e5b1152	0.21393326
236	0x3e592d2c	0.21208638
237	0x3da37926	0.079820916
238	0x3d87fcc0	0.06640005
239	0x3dba3cdf	0.090936415
240	0x3e1400d5	0.14453442
241	0x3d12d9df	0.03585231
242	0x3d47faa2	0.048823006
243	0xbe72aa03	-0.23697667
244	0xbcfc2123	-0.03077752
245	0x3c19f477	0.009396664
246	0xbe04e900	-0.12979507
247	0xbcc5e71a	-0.02415805
248	0xbbeb38f9	-0.0071784225
249	0xbd91760f	-0.07102596
250	0x3d8cae28	0.06869155
251	0x3d9ead31	0.077478774
252	0x3eb07919	0.3446739
253	0x3e5f3756	0.21798453
254	0x3d8334db	0.06406566
255	0x3df8c421	0.121467836

conv3.bias f4 [8]
0	0x3df93ebb	0.12170168
1	0x3e1f7739	0.15572824
2	0x3e9d7b45	0.3075811
3	0x3e258849	0.1616527
4	0x3ed4b7a3	0.41546354
5	0x3f4bbca8	0.7958474
6	0x3e45dafa	0.19321814
7	0x3dc46ad9	0.09590692

convt1.weight f4 [8, 8, 3, 3]
0	0xbc986030	-0.018600553
1	0x3d977979	0.07396216
2	0x3cb92040	0.022598386
3	0xbde2bdc5	-0.11071352
4	0x3bda4a36	0.0066616787
5	0xbd4fd8b8	-0.05074379
6	0xbe2400cf	-0.16015933
7	0x3e018a19	0.12650336
8	0xbbe18239	-0.006881979
9	0x3d7774cd	0.060414124
10	0xbce7023b	-0.028199306
11	0x3d47fbdd	0.04882418
12	0xbe88bb0b	-0.26705202
13	0xbdf6cbbe	-0.120505795
14	0x3dd77b98	0.105216205
15	0xbc7bc11b	-0.015365864
16	0x3d7d543b	0.061847907
17	0x3db7973c	0.089643925
18	0x3ce1b93d	0.027554149
19	0x3da1d166	0.07901268
20	0x3de37b76	0.11107533
21	0x3d9a057e	0.07520579
22	0x3c780927	0.015138901
23	0x3d81cff6	0.063384935
24	0xbdbff458	-0.09372777
25	0x3c0b4e45	0.008502548
26	0xbe215db8	-0.15758407
27	0x3ce06e70	0.02739641
28	0x3e449e1e	0.19200942
29	0x3da8b440	0.08237505
30	0x3df7f2db	0.12106868
31	0x3d5d48a2	0.054024346
32	0x3df53bc9	0.11974294
33	0x3e03ff32	0.12890318
34	0x3e774c58	0.24150217
35	0x3de1cd64	0.11025503
36	0xbcd6c471	-0.026216717
37	0x3d09e7bf	0.033668276
38	0xbd33f4e9	-0.043934736
39	0x3bb3e300	0.005489707
40	0x3c132934	0.008981992
41	0xbd92bb4e	-0.07164632
42	0xbe382882	-0.17984203
43	0xbe3f3055	-0.18670781
44	0xbe1f1574	-0.15535527
45	0xbe6a693d	-0.22891708
46	0xbe8fa6c2	-0.28056914
47	0xbea5b794	-0.32366621
48	0xbe2764d7	-0.16347061
49	0xbd3d03f0	-0.046146333
50	0xbda55f9f	-0.08074879
51	0xbe2a781c	-0.1664738
52	0xbdba38af	-0.09092843
53	0xbe94c24e	-0.29054493
54	0xbc159ea3	-0.00913206
55	0x3e00252c	0.1251418
56	0xbe0301a0	-0.12793589
57	0xbdc0b9f3	-0.09410467
58	0xbbd15503	-0.006388308
59	0xbe4f1a87	-0.20224963
60	0xbd944c43	-0.07241108
61	0xbe358115	-0.17725022
62	0x393baa32	0.00017897112
63	0xbdd15d28	-0.10222846
64	0xbde8813d	-0.11352775
65	0x3e5df640	0.21675968
66	0xbd59f0cd	-0.05320816
67	0xbddbb36a	-0.1072758
68	0xbd09e15f	-0.033662196
69	0xbe4c4b5f	-0.19950627
70	0xbdca49f9	-0.098773904
71	0xbe832802	-0.2561646
72	0xbdb3f156	-0.087862656
73	0xbec1090e	-0.3770222
74	0xbd89a1a8	-0.067202866
75	0xbba4003c	-0.0050049108
76	0xbe264f30	-0.16241145
77	0x3cbc4fc9	0.022987263
78	0xbd88c5cc	-0.06678352
79	0xbe0eba2c	-0.13938206
80	0xbcfb92b1	-0.030709596
81	0x3d0295bf	0.03188109
82	0x3d715a5a	0.058924057
83	0x3e11d282	0.14240459
84	0x3cadf9f2	0.021237347
85	0xbea6a884	-0.32550442
86	0xbdd73007	-0.10507207
87	0xbd13d513	-0.036091875
88	0xbdd3c72c	-0.103407234
89	0x3de4697a	0.111529306
90	0x3da204b9	0.07911057
91	0x3e16b7b5	0.14718516
92	0xbc835a65	-0.016034314
93	0x3d8828e0	0.06648421
94	0x3e2fbb5d	0.17161317
95	0x3d8657bc	0.06559703
96	0x3d08243a	0.033237673
97	0x3ded3b74	0.115836054
98	0x3dcbde7a	0.099545434
99	0xbe0becb3	-0.13664512
100	0xbe14374c	-0.14474219
101	0x3dc57ac1	0.09642554
102	0xbdbd9de5	-0.092586316
103	0x3d25db81	0.04049254
104	0xbd3f93ac	-0.04677169
105	0x3da48fb7	0.08035224
106	0x3e5dd11e	0.21661803
107	0xbe1f8ae2	-0.15580323
108	0xbdac9e97	-0.08428686
109	0xbddf6845	-0.1090856
110	0xbb927fdf	-0.00447081
111	0xbe221875	-0.15829642
112	0xbd81620a	-0.063175276
113	0x3d725361	0.059161548
114	0x3bf26309	0.00739706
115	0x3e04a17f	0.12952231
116	0x3e8ac31c	0.27101982
117	0x3d922ed8	0.07137841
118	0x3e9a81cf	0.3017716
119	0x3d95b792	0.07310404
120	0xbd88a501	-0.06672097
121	0xbe21c41b	-0.15797465
122	0xbd81045b	-0.06299659
123	0x3d1171c3	0.035508882
124	0xbe91f383	-0.28506097
125	0x3d2fe9d4	0.042947605
126	0xbe4779d1	-0.19480063
127	0xbd8c4f69	-0.06851084
128	0x3d885743	0.06657269
129	0x3cb900fc	0.022583477
130	0x3e34573c	0.17611402
131	0x3e4a6ef8	0.19768894
132	0x3d4eacbf	0.050457712
133	0x3d30c50d	0.043156672
134	0x3e5a2f7b	0.21307175
135	0xbdbd1ead	-0.092343666
136	0x3dbf786b	0.0934914
137	0x3e3cf344	0.18452173
138	0xbe0905a1	-0.13381054
139	0x3e27ff5e	0.16406009
140	0x3dbb7543	0.09153225
141	0x3d92b10a	0.07162674
142	0x3c9a915b	0.018868139
143	0x3e851adc	0.25997055
144	0x3e270c31	0.16313244
145	0xbec56085	-0.385502
146	0x3c45a21d	0.012062577
147	0xbdef686c	-0.11689839
148	0x3e3053bf	0.17219447
149	0x3dfe9460	0.12430644
150	0x3eb637d8	0.3558948
151	0xbe7ef473	-0.24897937
152	0x3d8c96da	0.0686471
153	0xbc19fb5a	-0.009398306
154	0x3ddd05f2	0.107921496
155	0x3ea9227c	0.33034122
156	0xbea7841a	-0.32717973
157	0x3e563dca	0.20922008
158	0xbcbe1249	-0.023202078
159	0xbd9d1981	-0.0767088
160	0x3e5398d4	0.20663768
161	0x3bd3aef5	0.0064600655
162	0x3daea7aa	0.08528073
163	0x3cf12789	0.029437797
164	0x3d8c4f73	0.06851091
165	0x3e592a14	0.21207458
166	0xbba55051	-0.005044975
167	0xbdeb860e	-0.11500178
168	0xbdc0cfca	-0.094146326
169	0x3d3944d8	0.04523167
170	0xbe4a37f9	-0.19747914
171	0xbd48d8f4	-0.049035028
172	0xbceb570b	-0.028728029
173	0xbe546171	-0.20740296
174	0xbcfe217c	-0.031021826
175	0xbd3b8d7a	-0.04578922
176	0xbda67d1a	-0.0812933
177	0xbd2d04f4	-0.04224105
178	0xbe3f34b7	-0.18672453
179	0xbd306245	-0.043062467
180	0x3d87dcea	0.06633933
181	0x3e482341	0.19544698
182	0x3d65fcb9	0.05614922
183	0x3e81fa0b	0.2538608
184	0xbe1d3c0e	-0.1535494
185	0xbdd38c01	-0.10329438
186	0x3e0c758d	0.13716717
187	0x3d9f19f0	0.07768619
188	0xbe8a2c80	-0.26987076
189	0x3e2c276b	0.16811912
190	0x3dd98188	0.10620409
191	0xbdc9cd96	-0.098536655
192	0x3e1dad79	0.15398206
193	0x3e67b6f6	0.22628388
194	0xbda29ba6	-0.07939844
195	0x3cdd0949	0.026981967
196	0x3d588442	0.052860506
197	0xbdbceb74	-0.092245966
198	0x3c844917	0.016148133
199	0xbbe643f9	-0.007027146
200	0xbd24c823	-0.040229928
201	0x3dfaf06a	0.122528866
202	0xbb9e4cd7	-0.0048309374
203	0xbe9cbba6	-0.30611914
204	0x3d656e0f	0.056013163
205	0x3d1074af	0.03526753
206	0x3d9d5f4c	0.07684192
207	0xbd44e453	-0.04806931
208	0xbe880c8a	-0.26572067
209	0xbe70b4c3	-0.23506455
210	0xbe228d4d	-0.15874214
211	0x3d984ec8	0.07436901
212	0xbc007a9e	-0.007841734
213	0x3e444a6c	0.19169015
214	0x3e5117a3	0.20419173
215	0xbd115d17	-0.035489168
216	0xbd9187b8	-0.071059644
217	0xbdbcf6c8	-0.09226757
218	0xbd35b8b5	-0.044365603
219	0xbe498e4a	-0.19683185
220	0xbe0d9594	-0.13826591
221	0xbd833b25	-0.06407765
222	0xbdfbc9e4	-0.12294367
223	0xbeafa492	-0.34305245
224	0xbd5b805a	-0.053589202
225	0xbe196a09	-0.14981855
226	0x3db15e63	0.08660581
227	0x3da3634a	0.07977922
228	0x3cef4681	0.029208424
229	0x3ca4d01e	0.02011877
230	0x3d9b37c0	0.07578993
231	0xbbb8a0ab	-0.0056343875
232	0xbdb0ef68	-0.08639413
233	0xbd2df2f0	-0.04246801
234	0x3d07d8dd	0.0331658
235	0x3d975831	0.07389868
236	0x3dc8805c	0.097901076
237	0xbe24cab1	-0.16092946
238	0x3d8120c2	0.06305076
239	0xbe533c7f	-0.20628546
240	0xbf00ae2c	-0.50265765
241	0x3ccf9e66	0.025344085
242	0xbd23fb48	-0.040034562
243	0xbdc12c83	-0.09432318
244	0xbde1dc0a	-0.11028297
245	0xbe2f7aff	-0.17136763
246	0xbd8d6023	-0.06903102
247	0xbcaf7304	-0.021417148
248	0xbd807602	-0.06272508
249	0xbd30dc5a	-0.043178894
250	0x3d5ead98	0.05436477
251	0xbd4dc923	-0.050240647
252	0xbb585b7a	-0.0033013509
253	0xbecc0361	-0.39846328
254	0x3b935f16	0.004497419
255	0xbe9fef88	-0.31237435

convt1.bias f4 [8]
0	0x3ec3fe75	0.38280073
1	0x3ea21898	0.3165939
2	0x3e9a3f32	0.3012634
3	0xbd7ff414	-0.06248863
4	0x3ec00c84	0.3750955
5	0xbcc66649	-0.024218695
6	0x3e1f97c9	0.15585245
7	0x3e92a22a	0.28639346

convt2.weight f4 [8, 16, 5, 5]
0	0x3d9c45e6	0.076305196
1	0x3d2398e6	0.039940737
2	0xbc5a3f58	-0.013320766
3	0x3d9bca67	0.076069646
4	0xbddd845c	-0.10816261
5	0xbe468e4a	-0.19390216
6	0xbd44eef7	-0.048079457
7	0x3df2452e	0.11829601
8	0xbd0eea44	-0.03489138
9	0x3c02a505	0.007973914
10	0x3e384457	0.1799482
11	0xbe0442b5	-0.12916072
12	0x3e17a5c8	0.14809334
13	0xbd061338	-0.032733172
14	0x3d8999f1	0.06718815
15	0xbca73f99	-0.020416068
16	0xbe07531a	-0.13215294
17	0x3e36e282	0.17859843
18	0xbdc4a622	-0.09602
19	0x3d4f4ca8	0.050610214
20	0x3ce0bab3	0.027432775
21	0x3e1fd218	0.15607488
22	0xbdb87515	-0.090067066
23	0x3e050a5d	0.12992235
24	0xbdd4729c	-0.103734225
25	0xbce70045	-0.02819837
26	0xbca6f833	-0.020382022
27	0x3e2799a0	0.16367197
28	0x3dc74492	0.097298756
29	0x3e07c7c9	0.13259806
30	0x3d9d7762	0.07688786
31	0x3e1e1b56	0.15440115
32	0x3ca74500	0.020418644
33	0x3e2fd400	0.17170715
34	0x3d35cc24	0.044384137
35	0xbd836862	-0.06416394
36	0xbcbe8148	-0.023255005
37	0x3c248179	0.010040634
38	0xbd4a47ec	-0.049384996
39	0xbdb95934	-0.09050217
40	0xbee78f9f	-0.45226762
41	0xbcc2e9ec	-0.023793183
42	0xbddf4ccc	-0.1090332
43	0x3dd9d765	0.10636786
44	0x3e3525bf	0.1769018
45	0xbd6e0de6	-0.058118723
46	0xbbbfc22d	-0.005852005
47	0xbc9e92f6	-0.019357186
48	0xbda520dc	-0.08062908
49	0xbbf64081	-0.0075150137
50	0xbe9a1070	-0.30090666
51	0x3dc56263	0.096379064
52	0xbd7c1627	-0.061544564
53	0xbe21d792	-0.1580489
54	0x3d826d9e	0.06368564
55	0xbe51195e	-0.20419833
56	0x3d265ba7	0.04061475
57	0xbe6b0793	-0.22952108
58	0x3cfa06f3	0.030520892
59	0x3ea997e7	0.33123705
60	0xbca0b76e	-0.019618716
61	0xbe46c0cc	-0.19409484
62	0xbe968898	-0.29401088
63	0x3d759e3f	0.05996537
64	0x3e25c07c	0.16186708
65	0xbe7d806f	-0.24756025
66	0x3d91a31b	0.07111188
67	0x3c3f4a55	0.011675437
68	0x3de938f9	0.1138782
69	0x3e72e6a1	0.2372079
70	0x3d8c38f6	0.06846802
71	0x3dc8b7b4	0.098006636
72	0x3e63d339	0.22248544
73	0x3e8730a7	0.26404306
74	0x3e903157	0.28162643
75	0xbe620a2b	-0.22074191
76	0x3e737aba	0.23777285
77	0x3e3014f6	0.17195496
78	0x3e1864d5	0.14882214
79	0x3eec8acd	0.46199647
80	0xbe80a9ca	-0.2512954
81	0xbd96db39	-0.07366032
82	0xbdb3497b	-0.0875425
83	0xbe0efe92	-0.13964298
84	0x3eb8c3b4	0.3608681
85	0xbe864212	-0.26222283
86	0xbe775d4b	-0.24156682
87	0xbb18c9e5	-0.0023313698
88	0x3dcd361e	0.10020088
89	0x3e66d583	0.22542386
90	0xbeb5af46	-0.35485286
91	0xbecd3c08	-0.40084863
92	0xbd53b1a5	-0.051683087
93	0xbe02a246	-0.12757215
94	0x3eb25f29	0.34838226
95	0xbf254d85	-0.6457141
96	0xbe26ae06	-0.16277322
97	0xbea8d973	-0.329784
98	0xbeaac52e	-0.3335356
99	0x3e3250c2	0.17413619
100	0xbeda9e74	-0.42699015
101	0x3ce36e04	0.02776242
102	0x3cc2a092	0.023758207
103	0xbd266ce1	-0.04063118
104	0xbe4ee74e	-0.20205423
105	0xbdc21647	-0.09476905
106	0x3d810512	0.06299795
107	0xbe0c83fe	-0.13722226
108	0xbe591c1e	-0.21202132
109	0xbd5db801	-0.054130558
110	0xbe817711	-0.25286153
111	0xbef4b660	-0.4779539
112	0x3d98b624	0.074566156
113	0x3d8eaad0	0.06966174
114	0x3db304e3	0.087411664
115	0xba8d8a7f	-0.0010798721
116	0xbe5a4e10	-0.21318841
117	0x3ddb4e52	0.10708298
118	0x3dc4a995	0.09602658
119	0xbee81a77	-0.4533269
120	0x3e2cb4fa	0.16865912
121	0x3dc8f407	0.098121695
122	0x3e2edc5b	0.17076246
123	0xbf325f1f	-0.69676393
124	0x3a151cf1	0.00056882115
125	0xbebf053d	-0.37308684
126	0x3d8351fb	0.06412121
127	0x3e4912be	0.19636056
128	0xbdf97bb3	-0.12181797
129	0xbea93d40	-0.33054543
130	0x3d130f9f	0.03590357
131	0x3d7a8500	0.061161995
132	0xbdd20ee6	-0.10256748
133	0xba8b5961	-0.0010631495
134	0x3ea4f111	0.3221517
135	0xbe593533	-0.212117
136	0x3d218ecf	0.039442834
137	0xbe4418e7	-0.19150124
138	0xbdadde16	-0.08489625
139	0xbe739b70	-0.23789763
140	0x3e6470c1	0.22308637
141	0x3de277c4	0.11058
142	0xbeba5002	-0.36389166
143	0xbdeb8f99	-0.115019985
144	0x3e353ee5	0.17699774
145	0x3c1c42fa	0.009537453
146	0x3e5beda5	0.21477373
147	0xbd69ae9f	-0.057051297
148	0x3eadc1a5	0.33936802
149	0xbe33687c	-0.17520326
150	0xbd8c5afd	-0.06853292
151	0xbc5cf404	-0.013485912
152	0xbe8ece64	-0.2789184
153	0x3d49c8f3	0.049263906
154	0xbe81f87f	-0.253849
155	0x3d76e273	0.060274553
156	0x3d5eec48	0.054424554
157	0x3df9d7ba	0.1219935
158	0x3d865eae	0.065610275
159	0x3d241533	0.04005928
160	0xbc403d92	-0.0117334295
161	0xbd81277e	-0.06306361
162	0xbd9fe898	-0.078080356
163	0xbd1593c0	-0.03651786
164	0xbdd93163	-0.10605123
165	0x3cfef566	0.031122874
166	0x3c9eba3f	0.019375918
167	0x3d3f6b12	0.04673297
168	0x3d2a984c	0.041649148
169	0x3de54ea2	0.11196639
170	0x3eaa5d2f	0.33274218
171	0x3ca111e8	0.019661859
172	0x3e7e906b	0.24859779
173	0x3d81a441	0.06330157
174	0x3c6a6381	0.01430595
175	0xbed3309b	-0.4124802
176	0xbe8a1753	-0.2697092
177	0xbe5a6226	-0.21326503
178	0xbd20cfb4	-0.03926058
179	0x3e8141b8	0.25245452
180	0xbf454f7f	-0.77074426
181	0x3d2807f9	0.04102323
182	0x3d69d9e8	0.057092577
183	0xbe9cef28	-0.30651212
184	0x3d660809	0.056160007
185	0xbea249db	-0.31696972
186	0xbd9d67bc	-0.076858014
187	0x3d3d03ae	0.046146087
188	0x3d5a454f	0.053288754
189	0x3e4596fa	0.19295874
190	0xbde1b561	-0.110209234
191	0xbf706672	-0.9390632
192	0xbe9cab18	-0.30599284
193	0xbcf1851c	-0.029482417
194	0x3e5b368f	0.21407531
195	0xbe764ff5	-0.24053939
196	0xbeae3d4b	-0.34031138
197	0x3c8f89b5	0.017521719
198	0x3c693fe6	0.014236426
199	0x3ee68a9c	0.45027626
200	0x3e46331a	0.19355431
201	0xbe762964	-0.24039227
202	0x3d30d707	0.043173816
203	0x3d218733	0.039435577
204	0xbde13134	-0.10995713
205	0x3e57da76	0.2107943
206	0xbf31302c	-0.6921413
207	0xbe8b6197	-0.27222893
208	0xbd95d9f8	-0.07316965
209	0x3e7a3f86	0.24438295
210	0xbdefbfcd	-0.11706505
211	0x3c0e43a4	0.008683119
212	0x3c0dd1d1	0.008655981
213	0x3d4d562b	0.050131004
214	0x3ccd5c9d	0.025068576
215	0x3e5c267f	0.2149906
216	0x3d236d60	0.03989923
217	0xbe68d4a0	-0.2273736
218	0x3eb4806d	0.3525423
219	0x3e25e92d	0.16202231
220	0xbec8f8d1	-0.39252332
221	0xbed077ec	-0.40716493
222	0xbe39efb9	-0.18157853
223	0xbdf27ef4	-0.11840621
224	0xbc9de3aa	-0.019273598
225	0xbe3d4e24	-0.1848684
226	0xbe409f01	-0.18810655
227	0xba86063a	-0.0010225244
228	0xbeb74601	-0.35795596
229	0xbe13d5b3	-0.14436989
230	0xbe73b19b	-0.2379822
231	0xbce7520c	-0.028237365
232	0xbe173ec8	-0.14770043
233	0xbc9c30a2	-0.019066159
234	0x3d612d97	0.05497512
235	0x3e8ae426	0.27127188
236	0x3de1332c	0.109960884
237	0xbe9e77fa	-0.3095091
238	0xbd204aee	-0.03913396
239	0xbee4decc	-0.4470123
240	0xbdd01f4f	-0.10162222
241	0x3d891f73	0.066954516
242	0x3a71c372	0.0009222544
243	0x3c8330d7	0.0160145
244	0xbe3fc775	-0.1872843
245	0x3e675e48	0.22594559
246	0x3dbd47cc	0.0924221
247	0xbebb5dd0	-0.3659501
248	0x3dbcd984	0.09221175
249	0xbe7c664d	-0.246484
250	0x3e3b7abc	0.18308538
251	0x3e61b738	0.22042549
252	0x3e6f0b46	0.23344144
253	0xbdc44185	-0.09582809
254	0x3e99fef1	0.30077317
255	0xbe0e118f	-0.13873886

convt2.bias f4 [16]
0	0xbd8b26d1	-0.06794513
1	0x3e81f802	0.25384527
2	0x3df74105	0.12072948
3	0x3c9e31a8	0.019310787
4	0x3d4eeed9	0.05052075
5	0xbe88f957	-0.2675273
6	0x3e84216b	0.25806746
7	0x3e7c7fc6	0.24658117
8	0x3bb7a3d5	0.005604247
9	0x3e698031	0.22802807
10	0x3e78206e	0.24231121
11	0x3e6664d3	0.22499399
12	0xbe8dcfae	-0.2769751
13	0x3cb268e5	0.021778533
14	0xbc9a2808	-0.018817917
15	0xbdf894fc	-0.121377915

convt3.weight f4 [16, 32, 9, 9]
0	0xbdce60e5	-0.10077075
1	0x3e264525	0.16237314
2	0x3c6f9286	0.014622336
3	0xbc785133	-0.015156078
4	0xbf01c544	-0.5069163
5	0xbdd5b841	-0.10435534
6	0xbadb8be1	-0.0016750061
7	0xbebd229a	-0.3694046
8	0xbd707038	-0.05870077
9	0xbf52b67f	-0.82309717
10	0xbd82c591	-0.06385339
11	0xbf0945f4	-0.53622365
12	0xbeee5e17	-0.4655616
13	0xbe52d0ee	-0.20587513
14	0xbeb27b56	-0.34859723
15	0xbde55628	-0.111980736
16	0xbda2db49	-0.079519816
17	0x3d449a55	0.047998745
18	0xbd8358d2	-0.064134255
19	0xbc9914ab	-0.018686613
20	0xbc214299	-0.009842538
21	0xbe854ecb	-0.26036677
22	0xbe6b7a3b	-0.22995846
23	0xbe8160aa	-0.2526906
24	0xbea39c0a	-0.31954986
25	0xbe66acab	-0.22526805
26	0xbe2e5010	-0.17022729
27	0xbe588c8c	-0.21147364
28	0xbe194a20	-0.14969683
29	0xbf2473f8	-0.64239454
30	0xbe024698	-0.12722242
31	0xbe1da35c	-0.15394348
32	0xbf81755d	-1.0113941
33	0xbdf612ec	-0.12015328
34	0x3d239309	0.039935146
35	0xbf0b9026	-0.5451683
36	0xbe6d3d47	-0.23167907
37	0xbeba033d	-0.36330596
38	0xbeb61198	-0.35560298
39	0xbe1bc6f6	-0.15212616
40	0xbef7eefc	-0.48424518
41	0xbe666272	-0.22498491
42	0xbe790263	-0.24317317
43	0xbe673f98	-0.22582853
44	0x3e204dea	0.15654722
45	0xbda3da8a	-0.080006674
46	0xbed7eab2	-0.42171246
47	0xbe8ffbaa	-0.28121692
48	0xbed3ccc7	-0.4136717
49	0xbf0dba27	-0.5536217
50	0xbe637721	-0.22213413
51	0xbf00e3e4	-0.50347733
52	0xbe00bc6d	-0.12571879
53	0xbe90765c	-0.282153
54	0xbe24fd97	-0.16112362
55	0x3d9b3d75	0.075800814
56	0xbd59d8cf	-0.05318528
57	0xbe07e73e	-0.13271806
58	0xbeb941b2	-0.36182934
59	0xbd75c42b	-0.060001533
60	0xbdbf21fe	-0.09332655
61	0xbe8ae805	-0.27130142
62	0xbdb7b369	-0.08969767
63	0xbe9ca412	-0.30593926
64	0xbedcd295	-0.4312941
65	0xbeeda9cc	-0.46418607
66	0xbe9182a6	-0.2841999
67	0xbe9d3b54	-0.30709326
68	0xbe0755f7	-0.13216387
69	0xbeffe41f	-0.4997873
70	0x3ce4b1e0	0.027916849
71	0xbf01794f	-0.5057573
72	0x3d0bad2a	0.03410069
73	0xbdbe3db7	-0.09289115
74	0x3e089642	0.13338569
75	0x3dad40a1	0.084595926
76	0x3d9f77e1	0.07786537
77	0xbe86ff12	-0.26366478
78	0xbe78d3f4	-0.24299604
79	0x3e1d4bac	0.15360898
80	0xbe3e0c60	-0.18559408
81	0x3d0400d5	0.032227356
82	0x3c12b012	0.008953111
83	0x3c83eff0	0.016105622
84	0x3c92228f	0.017838744
85	0x3cfff8db	0.031246593
86	0x3d2c2d21	0.042035226
87	0xbc6acfde	-0.014331786
88	0x3a59620a	0.0008292502
89	0x3bfc95cc	0.007708287
90	0xbe86300c	-0.26208532
91	0xbc820008	-0.015869156
92	0xbae35ff9	-0.0017347328
93	0xbf22fec8	-0.63670015
94	0x3cadb3e7	0.021203948
95	0xbd1b99e3	-0.037988555
96	0xbf047447	-0.51739925
97	0xb882e111	-6.240805e-05
98	0xbccc9e62	-0.024977867
99	0xbc80300d	-0.015647912
100	0x3c5deb92	0.013544934
101	0x3c478324	0.012177262
102	0x3cd03c51	0.025419386
103	0xbafd1a1e	-0.0019310152
104	0xbd3a139b	-0.045428853
105	0xbc4bb906	-0.01243425
106	0xbc54450e	-0.012955917
107	0xbbb7a2c9	-0.0056041223
108	0xbb851678	-0.0040615164
109	0xbbcf5be3	-0.0063280924
110	0x3d3d7944	0.046258226
111	0x3be41ee2	0.0069616893
112	0x3d0d9074	0.03456159
113	0x3cee6792	0.02910212
114	0xbca474e6	-0.020075273
115	0x3c82d657	0.015971346
116	0xbcdec160	-0.027191818
117	0xbee87d4d	-0.45408097
118	0xbc45d239	-0.012074047
119	0xbb97b167	-0.0046293023
120	0xbf616193	-0.8803951
121	0x3ca64a60	0.020299137
122	0xbd6aeb6d	-0.057353426
123	0xbef20d2a	-0.47275668
124	0xbc789c91	-0.015174047
125	0xbd4cdd43	-0.0500157
126	0xbcaf5f41	-0.021407725
127	0x3c8382a2	0.016053502
128	0x3caf0c9d	0.02136832
129	0xbcebef1e	-0.028800543
130	0xbcf03fcc	-0.029327296
131	0xbcff7f19	-0.031188535
132	0xbd0e3ef5	-0.03472801
133	0xbce6ce41	-0.028174521
134	0x3ba30345	0.004974755
135	0x3c254b64	0.010088775
136	0x3d08669c	0.03330098
137	0x3d6d981f	0.058006402
138	0x3ccf1194	0.025276937
139	0x3d939f23	0.07208087
140	0x3d048fac	0.03236358
141	0xbc8245f5	-0.015902499
142	0x3c4e4eaf	0.012592002
143	0x3cfbb46a	0.030725677
144	0xbf02c96c	-0.51088595
145	0xbcc605f2	-0.024172757
146	0xbbbf8e90	-0.005845852
147	0xbf656a49	-0.89615303
148	0x3c816022	0.01579291
149	0xbd20d27b	-0.03926323
150	0xbed43894	-0.41449416
151	0x3b3a8877	0.0028462687
152	0xbc8c6a33	-0.017140483
153	0x3a032618	0.000500293
154	0x3b1a313c	0.002352788
155	0x3c92333b	0.017846694
156	0xbc2d7c01	-0.010588647
157	0xbc73ad7a	-0.014872903
158	0xbc7ccc9b	-0.015429641
159	0xbd24cdb2	-0.04023523
160	0xbd112a58	-0.035440773
161	0x397a977b	0.00023898289
162	0xbc065fba	-0.008201534
163	0xbd5322ba	-0.05154679
164	0xbc0848a1	-0.008318097
165	0xbc349d8a	-0.011023888
166	0xbd85c32a	-0.06531365
167	0xbd128655	-0.03577264
168	0x3c062977	0.008188597
169	0xbca1f889	-0.019771831
170	0xbc1a1e22	-0.009406598
171	0xbd10c9a9	-0.035348568
172	0xbdbbabf4	-0.09163657
173	0xbca6f8d9	-0.020382332
174	0xbd2b9852	-0.04189331
175	0xbdabb69a	-0.08384438
176	0xbd93986e	-0.07206808
177	0xbd2a2784	-0.04154159
178	0xbd5f81a1	-0.054566983
179	0xbc4c0f7d	-0.012454865
180	0xbd479021	-0.048721436
181	0xbb98cb17	-0.004662882
182	0xbd472ede	-0.04862868
183	0xbd3a3ee3	-0.04547013
184	0xbd34f6bb	-0.044180613
185	0xbd6d62ab	-0.057955425
186	0xbd483d07	-0.048886325
187	0xbb8c5580	-0.0042826533
188	0xbd3217ad	-0.04347961
189	0xbd06602c	-0.03280656
190	0xbd21028d	-0.039309073
191	0xbd1557d1	-0.0364607
192	0xbc9b7e04	-0.018980987
193	0xbdb77df9	-0.08959574
194	0xbd3248ee	-0.043526582
195	0xbcfb1cea	-0.030653436
196	0xbd381fdc	-0.04495226
197	0xbc9a8c22	-0.018865649
198	0xbc302725	-0.01075152
199	0xbd8214ff	-0.06351661
200	0x3ab320e1	0.0013666415
201	0xbc6c29d3	-0.014414269
202	0xbd8e80a7	-0.06958132
203	0x3a9893cd	0.0011640728
204	0xbc4a96f5	-0.0123650925
205	0xbcfdfad9	-0.031003403
206	0x3b01b6bd	0.0019792758
207	0xbd19db3d	-0.037562598
208	0xbc75c582	-0.015000703
209	0xbc9d11b4	-0.01917348
210	0x3a95e884	0.0011437093
211	0xbc37843e	-0.011200963
212	0xbc887634	-0.016657926
213	0xbd3d08a4	-0.04615082
214	0xbce0c0b8	-0.027435645
215	0xbb8a29c3	-0.004216404
216	0x3ba290cb	0.0049611083
217	0xbc877efa	-0.01654004
218	0xbc82af94	-0.015952863
219	0xbc964c65	-0.018346975
220	0xbd69e731	-0.057105247
221	0xbd1e3c58	-0.038631767
222	0x3c50bdbe	0.012740551
223	0xbd349bec	-0.04409401
224	0xbc680713	-0.014161843
225	0xbb7fe871	-0.0039048458
226	0xbc525a5b	-0.012838925
227	0xbbeda549	-0.0072523695
228	0xbd50b2a3	-0.05095161
229	0xbd0e2138	-0.03469965
230	0xbc180dc9	-0.00928063
231	0xbaba6eaf	-0.001422366
232	0xbc8b8b59	-0.01703422
233	0x3a43be3c	0.0007467007
234	0xbd89d050	-0.067291856
235	0xbc0f3fe2	-0.008743258
236	0xbd07f13c	-0.033189043
237	0xbd6b63b8	-0.057468146
238	0xbd1090c2	-0.0352943
239	0xbd2032f4	-0.039111093
240	0xbcf39522	-0.029734198
241	0xbbbddb43	-0.0057939603
242	0xbb98d0ec	-0.0046635773
243	0xbdc96941	-0.09834529
244	0x3da5fded	0.08105073
245	0xbd17a48c	-0.03702216
246	0xbd485672	-0.048910566
247	0x3dbe9329	0.09305412
248	0xbf2aab1f	-0.6666736
249	0xbc2c698f	-0.010523214
250	0x3cf98d8f	0.030463008
251	0x3cca2a52	0.024678383
252	0xbd078f7a	-0.033095814
253	0xbced1e54	-0.028945126
254	0x3d1e9d89	0.038724456
255	0xbc012214	-0.00788166

convt3.bias f4 [32]
0	0x3bb02d02	0.005376459
1	0x3e00bb95	0.12571557
2	0x3c92e284	0.017930277
3	0x3dd44080	0.10363865
4	0x3c9f864e	0.019473221
5	0xbd0cf797	-0.034415808
6	0xbca3813c	-0.019959085
7	0xbc7c1664	-0.015386198
8	0x3e84f9b1	0.2597175
9	0x3d094d3f	0.033520933
10	0x3ca2e92a	0.019886572
11	0x3d23c560	0.039983153
12	0xbcfeddf7	-0.0311117
13	0xbc93113e	-0.017952558
14	0xbf23b61e	-0.63949764
15	0x3d2e7126	0.042588376
16	0x3e59b8df	0.21261929
17	0xbaf0d55e	-0.0018374135
18	0x3d4a6273	0.049410295
19	0x3a381c94	0.00070233014
20	0x3d46288c	0.048378512
21	0x3e1eedaf	0.15520357
22	0xbd03d22d	-0.03218286
23	0x3cae0f47	0.02124752
24	0x3b88e53c	0.0041777175
25	0xbe19f723	-0.15035681
26	0x3e479268	0.19489443
27	0x3bcb44ae	0.0062032556
28	0xbe6b9869	-0.23007359
29	0xbd9ce79c	-0.076613635
30	0x3ce60ee5	0.028083274
31	0x3d4b405b	0.04962192

pos_output.weight f4 [1, 32, 2, 2]
0	0x3d7ccefa	0.061720826
1	0x3da18f05	0.07888607
2	0x3d814ca7	0.063134484
3	0x3d8af74b	0.06785449
4	0x3d1e641c	0.03866969
5	0xbdca1ef5	-0.09869186
6	0x3dd85bd5	0.105643906
7	0xbd9656d1	-0.07340778
8	0xbc8dd891	-0.017315181
9	0xbd8771fe	-0.06613539
10	0x3d8e99e0	0.06962943
11	0x3dcc14a1	0.09964872
12	0xbdcaf9a2	-0.09910895
13	0xbd9d346f	-0.076760165
14	0xbe09834f	-0.13428997
15	0xbe22e814	-0.15908843
16	0x3e026415	0.12733491
17	0x3e612814	0.21987945
18	0x3dbf2815	0.09333817
19	0x3df7737f	0.12082576
20	0x3dd421a5	0.1035798
21	0x3dd6af82	0.10482694
22	0x3dca428f	0.09875976
23	0x3dc516e1	0.096235044
24	0x3de4bd35	0.11168901
25	0x3dd79c86	0.10527901
26	0x3dbcf6cb	0.092267595
27	0x3dd46d7a	0.103724435
28	0x3da171ea	0.078830555
29	0x3d95c083	0.07312109
30	0x3d8e53e8	0.069495976
31	0x3dafe0f8	0.08587831
32	0xbd539b12	-0.05166156
33	0x3d4c80c5	0.04992749
34	0x3dea5542	0.11442043
35	0x3dacf0fe	0.08444403
36	0x3c3a1d8a	0.011359582
37	0xbe37c06b	-0.17944495
38	0x3d7c9ee2	0.06167496
39	0x3d5c8a6a	0.05384294
40	0xbd2a96bb	-0.041647654
41	0x3e0cadfa	0.13738242
42	0xbd32e013	-0.043670725
43	0x3dead968	0.11467248
44	0x3e1d06c4	0.15334612
45	0x3e0d9b4e	0.13828775
46	0x3e2d33df	0.16914319
47	0x3e051465	0.12996061
48	0x3d841786	0.06449799
49	0x3d6cd899	0.05782375
50	0x3d9a745e	0.075417265
51	0x3d908a31	0.07057608
52	0x3ceb3ac3	0.028714543
53	0x3c801f39	0.015639888
54	0x3df9f062	0.122040525
55	0x3d182db6	0.03715297
56	0xbf01ce70	-0.50705624
57	0xbe9b0d6d	-0.3028368
58	0xbea88e08	-0.3292086
59	0xbf02b555	-0.5105794
60	0x3e0a15ed	0.13484927
61	0x3d80e519	0.06293697
62	0xbe1c3e89	-0.1525823
63	0xbd2d281d	-0.042274583
64	0x3e4af293	0.19819097
65	0x3e7fb2d0	0.24970555
66	0xbdc1c320	-0.09461045
67	0xbdda8645	-0.10670141
68	0x3c3f4664	0.011674497
69	0x3c3f8559	0.011689507
70	0x3c0e9500	0.008702517
71	0x3bcebfef	0.0063095014
72	0x3e01b149	0.12665285
73	0xbd95282c	-0.07283053
74	0x3c88a79d	0.016681487
75	0xbdf538b3	-0.11973705
76	0x3d8507af	0.06495606
77	0xbb90f737	-0.0044240016
78	0x3dcd8c33	0.100365065
79	0xbc88a834	-0.016681768
80	0xbddd5815	-0.10807816
81	0xbdd8ea41	-0.105915554
82	0x3d839de6	0.06426601
83	0x3d67d415	0.05659874
84	0xbdf0ad5e	-0.11751817
85	0xbda13227	-0.07870894
86	0xbe0fe56a	-0.14052358
87	0xbd99ac15	-0.07503525
88	0x3d6779d6	0.056512676
89	0x3dbe7932	0.0930046
90	0x3db694cc	0.089150995
91	0x3d934d95	0.07192532
92	0x3dc623a4	0.09674767
93	0x3d9357f6	0.071945116
94	0x3df5e241	0.12006045
95	0x3d37a3fe	0.04483413
96	0xbccbf1b2	-0.024895523
97	0xbdf36aa9	-0.11885578
98	0xbe477731	-0.19479062
99	0x3d5d1ccc	0.05398254
100	0x3cde6d6e	0.02715179
101	0xbc1b4196	-0.009476086
102	0x3d04c0d0	0.032410443
103	0x3c7c55ac	0.015401285
104	0xbdff80ca	-0.124757364
105	0xbe3dcf33	-0.18536071
106	0xbce10a6f	-0.027470795
107	0xbd45319c	-0.048143014
108	0x3c8df862	0.017330352
109	0x3d65263a	0.05594466
110	0x3d59ed58	0.053204864
111	0x3db57031	0.088592894
112	0x3d7428ad	0.059609104
113	0x3d5c2a5f	0.053751346
114	0x3d1a89dd	0.037729133
115	0x3d83efd4	0.06442228
116	0x3c8606b3	0.016360616
117	0x3c5c26f2	0.01343702
118	0x3c8b8d8e	0.017035272
119	0x3cbd3f53	0.023101484
120	0x3db11c5d	0.08647988
121	0x3d6aec0b	0.057354014
122	0x3c10736b	0.00881658
123	0xbe135a4d	-0.14389916
124	0xbdb16419	-0.0866167
125	0xbdbe1915	-0.09282128
126	0xbd707e17	-0.058714
127	0xbd9bfa4e	-0.07616101
