Experts/Generative/pretrained_models/cornell/GGCNNRGB_Cornell.pth (torch, 277106 bytes, 16 tensors)

conv1.weight f4 [32, 3, 9, 9]
0	0xbe2433e7	-0.16035424
1	0xbde2b6df	-0.11070036
2	0xbe0f11c4	-0.13971621
3	0xbdf3acd6	-0.118982
4	0xbe07fb04	-0.13279349
5	0xbda40496	-0.08008687
6	0xbdfd7b89	-0.12377078
7	0xbde1be60	-0.11022639
8	0xbe2438f5	-0.16037352
9	0xbd9187c4	-0.07105973
10	0xbdbd0b13	-0.09230628
11	0xbe121515	-0.14265855
12	0xbd95961a	-0.0730402
13	0xbddee006	-0.10882573
14	0xbd5d706d	-0.054062296
15	0xbde89710	-0.11356938
16	0xbe0c0c0a	-0.13676468
17	0xbddf63c8	-0.10907704
18	0xbd90c068	-0.070679486
19	0xbd98aae3	-0.07454469
20	0xbe09601e	-0.13415572
21	0xbe2edcab	-0.17076366
22	0xbe2da57e	-0.16957662
23	0xbdcaf89b	-0.09910699
24	0xbdd9cc7f	-0.10634708
25	0xbe2cf165	-0.1688896
26	0xbdd587b5	-0.10426275
27	0x3cb50756	0.022098225
28	0xbde9c1cf	-0.11413919
29	0xbdeaa604	-0.11457446
30	0xbe025aad	-0.12729903
31	0xbdb43912	-0.08799948
32	0xbe210644	-0.15725046
33	0xbe3e39ba	-0.18576708
34	0xbdee2976	-0.11629002
35	0xbd341d53	-0.04397328
36	0xbc3e5947	-0.011617965
37	0xbdf1c60a	-0.11805351
38	0xbe0ec4a9	-0.13942207
39	0xbe465b19	-0.19370688
40	0xbe37a9fd	-0.17935939
41	0xbe1d24e0	-0.15346098
42	0xbe4577ad	-0.19283934
43	0xbdfebb0d	-0.12438021
44	0xbdeb4d2b	-0.11489328
45	0xbca8fe07	-0.020628942
46	0xbe29e4cc	-0.16591185
47	0xbe0ce84c	-0.13760489
48	0xbe5347b1	-0.20632817
49	0xbe1c14fc	-0.1524238
50	0xbe30c106	-0.17261133
51	0xbe6f6952	-0.2338002
52	0xbe10fa99	-0.14158095
53	0xbd9fa1ec	-0.07794556
54	0xbd93f5d7	-0.072246246
55	0xbe07ad1e	-0.13249633
56	0xbe3ec493	-0.18629675
57	0xbe3bc869	-0.18338169
58	0xbe09f5f3	-0.13472728
59	0xbe2aaefc	-0.16668314
60	0xbe50165d	-0.20321031
61	0xbe1c87bf	-0.15286158
62	0xbd8a80fd	-0.06762884
63	0xbb2b1217	-0.0026103312
64	0xbda02570	-0.07819641
65	0xbe088c31	-0.13334729
66	0xbe2b800e	-0.16748068
67	0xbe0bdf48	-0.13659394
68	0xbdf0d272	-0.11758889
69	0xbe08ac46	-0.13346967
70	0xbdc42ff9	-0.095794626
71	0xbb838bc8	-0.004014466
72	0x3d7053a3	0.058673512
73	0x3ce08956	0.027409237
74	0xbd947bce	-0.07250176
75	0xbd2fb4af	-0.042896923
76	0xbd2d7071	-0.04234356
77	0xbd8cc0e1	-0.06872726
78	0xbd2b7e5d	-0.041868556
79	0xbce63679	-0.028102146
80	0x3dac10fa	0.084016755
81	0x3d28bbec	0.04119484
82	0x3d35fb44	0.04442908
83	0x3d543c5c	0.051815376
84	0x3da82139	0.08209462
85	0x3e3025b1	0.17201878
86	0x3e59ea54	0.21280795
87	0x3e09ccdd	0.13457055
88	0x3da6ff72	0.08154191
89	0x3de9cbb1	0.11415804
90	0x3e7a7760	0.244596
91	0x3e4698a4	0.19394165
92	0x3e2d0625	0.16896875
93	0x3e4e2bbe	0.20133874
94	0x3e3c68d6	0.18399367
95	0x3e889fef	0.2668452
96	0x3e29cd0c	0.16582125
97	0x3e2ae82e	0.16690132
98	0x3e4fd8c6	0.20297536
99	0x3e69172e	0.22762749
100	0x3e5b7919	0.21432914
101	0x3df7b377	0.12094777
102	0x3e07c5b8	0.13259017
103	0x3e226a3e	0.1586084
104	0x3e49019b	0.19629519
105	0x3dc993e4	0.09842661
106	0x3e5a874c	0.21340674
107	0x3e8f584f	0.27997062
108	0x3e84975d	0.2589673
109	0x3e1f4e99	0.15557326
110	0x3def6dcb	0.11690863
111	0x3dca0a09	0.09865195
112	0x3e04a47d	0.12953372
113	0x3e20cd99	0.1570343
114	0x3dfa1aed	0.12212167
115	0x3e320fd2	0.17388847
116	0x3e7a379f	0.2443528
117	0x3e8d6928	0.2761929
118	0x3e28c5e0	0.16481733
119	0x3dee81ba	0.11645837
120	0x3da3b2e3	0.07993104
121	0x3ded3137	0.115816526
122	0x3dd682dc	0.10474178
123	0x3d5c130c	0.053729102
124	0x3d75a413	0.059970926
125	0x3e4d9053	0.20074587
126	0x3e4808b6	0.19534573
127	0x3e1018d2	0.14071968
128	0x3d50b11d	0.05095016
129	0x3d1b7982	0.037957676
130	0x3d621f37	0.05520555
131	0x3dd390fe	0.103303894
132	0xbc4397af	-0.01193802
133	0x3cd26cca	0.02568664
134	0x3e64cba4	0.22343308
135	0x3e9346a5	0.28764835
136	0x3daaf8c7	0.08348232
137	0x3d772fdb	0.060348373
138	0x3dde4bc1	0.10854293
139	0x3dd439b0	0.103625655
140	0x3e10a78e	0.14126417
141	0x3d75310c	0.059861228
142	0x3d8ff1ad	0.07028518
143	0x3e7ca465	0.24672087
144	0x3e886908	0.26642632
145	0x3e1aef0c	0.15130252
146	0x3dca7d6f	0.09887206
147	0x3df72f0a	0.12069519
148	0x3e38ae9d	0.1803536
149	0x3e445beb	0.19175689
150	0x3dd8f34a	0.10593279
151	0x3e353d54	0.17699176
152	0x3e986cde	0.2977056
153	0x3eb0c48a	0.34524947
154	0x3ea244b0	0.3169303
155	0x3e8c6c6c	0.2742647
156	0x3ea14f2e	0.31505722
157	0x3e9a9f93	0.3019987
158	0x3e870118	0.26368022
159	0x3ea2f832	0.31829983
160	0x3eae1f4f	0.34008262
161	0x3efaeb8b	0.4900783
162	0xbe5a2ecf	-0.21306919
163	0xbe3b9813	-0.1831973
164	0xbdd74cc5	-0.105126895
165	0xbd3d58d2	-0.046227284
166	0xbd7a8a15	-0.06116684
167	0xbcd2c6f7	-0.02572964
168	0xbd8518a6	-0.06498842
169	0xbcc8f8d9	-0.024532722
170	0xbc440e8d	-0.01196636
171	0xbdabc7dc	-0.083877295
172	0xbd8528c8	-0.06501919
173	0xbdbb6e01	-0.09151841
174	0xbd288a91	-0.041147772
175	0xbbd83db6	-0.0065991534
176	0x3cd3d3b4	0.025857784
177	0xbc8d7fae	-0.017272796
178	0x3c9fc4cb	0.019503018
179	0x3dcef3ad	0.10105071
180	0x3d55583a	0.052086093
181	0x3bdeee35	0.006803299
182	0xbccad713	-0.024760759
183	0x3d20ac6c	0.039226934
184	0x3d09ce19	0.033643816
185	0x3d4a48b4	0.04938574
186	0x3c11f34e	0.008908106
187	0x3c07a13d	0.008278188
188	0x3d994629	0.07484085
189	0x3dc6a918	0.09700221
190	0x3c3e1cfe	0.011603592
191	0xbcde737e	-0.02715468
192	0x3c731057	0.014835439
193	0xbb510406	-0.0031893267
194	0x3d8226a0	0.063550234
195	0xbd02fe89	-0.031981025
196	0x3c9dd7b1	0.019267889
197	0x3dfbbd3a	0.122919515
198	0x3daeba0d	0.0853158
199	0x3c98f1fb	0.018670073
200	0xbcdedf91	-0.027206214
201	0x3cc41152	0.02393404
202	0x3c551e4c	0.013007712
203	0xbc809f4f	-0.015700964
204	0xbc7e15f9	-0.015508168
205	0xbd53bb12	-0.051692076
206	0x3d5e0a77	0.0542092
207	0x3dda221e	0.106510386
208	0x3cad832b	0.02118071
209	0x3cb4b4bb	0.022058835
210	0xbbe78e43	-0.0070665195
211	0x3befeec9	0.0073221666
212	0x3c95868b	0.018252632
213	0xbd7921e5	-0.06082334
214	0xbbe7d5db	-0.007075054
215	0x3c933e4d	0.017974043
216	0x3dd3db01	0.10344506
217	0x3da5c0bb	0.08093401
218	0xbd24b700	-0.040213585
219	0xbc34dee5	-0.01103947
220	0x3d48ea96	0.049051844
221	0xbd445eb3	-0.047941875
222	0xbddb9715	-0.10722176
223	0xbcc7f1b5	-0.024407247
224	0x3daafb33	0.08348694
225	0x3e1be1a3	0.15222792
226	0x3d7a29d7	0.061075058
227	0x3d8256a3	0.06364181
228	0x3d897085	0.067109145
229	0xbb11cfe8	-0.0022249166
230	0x3d97cb49	0.074118204
231	0xbcdc7d33	-0.026915168
232	0x3da28da4	0.07937172
233	0x3e2ad53c	0.16682905
234	0x3e662d82	0.22478297
235	0x3e4f13db	0.20222418
236	0x3e2a3a9f	0.16623925
237	0x3e253fbe	0.16137597
238	0x3df11e00	0.117733
239	0x3e39f44b	0.18159597
240	0x3e096f44	0.1342135
241	0x3e4a1232	0.19733503
242	0x3e935e19	0.28782728
243	0x3c52d5f5	0.012868394
244	0xbd832ff1	-0.064056285
245	0xbe06c959	-0.13162746
246	0xbe383c1f	-0.17991684
247	0xbe634d2c	-0.22197407
248	0xbe882e81	-0.2659798
249	0xbe750e9d	-0.23931356
250	0xbe126a48	-0.14298356
251	0x3d62def8	0.05538842
252	0x3eabc2c7	0.3354704
253	0x3e22b734	0.15890199
254	0x3df43856	0.11924808
255	0xbd9ae272	-0.07562722

conv1.bias f4 [32]
0	0x3e5a6911	0.21329142
1	0xbf016299	-0.50541073
2	0xbf277614	-0.6541455
3	0xbf6f0522	-0.9336721
4	0xbf65280a	-0.8951422
5	0x3e923ac7	0.2856047
6	0xbf3d9ebc	-0.74070334
7	0x3d292e3a	0.04130385
8	0xbed0e427	-0.40799066
9	0x3afb6f52	0.0019182956
10	0xbea5d21a	-0.32386857
11	0xbea12b3e	-0.31478304
12	0xbf2da55c	-0.67830443
13	0xbdb05cb2	-0.0861143
14	0xbeda1358	-0.42592883
15	0xbea075d0	-0.31339884
16	0xbf41c22c	-0.7568691
17	0xbefa69f7	-0.4890897
18	0xbc77c34a	-0.015122244
19	0x3c477215	0.012173195
20	0xbdd66a35	-0.10469476
21	0x3f038495	0.5137418
22	0xbea228f8	-0.31671882
23	0xbe83f260	-0.25770855
24	0xbf10ac37	-0.5651278
25	0xbeffc0fd	-0.49951926
26	0xbdfce7dc	-0.12348911
27	0x3f04e64d	0.5191391
28	0xbeeb7cd0	-0.45993662
29	0xbf002815	-0.5006116
30	0x3e8c0107	0.27344534
31	0xbf3e6f2f	-0.743884

conv2.weight f4 [16, 32, 5, 5]
0	0x3dd22272	0.10260476
1	0xbdc19682	-0.09452535
2	0xbe6d6667	-0.23183595
3	0xbd397f57	-0.045287456
4	0x3d6fc5a4	0.058538094
5	0x3e34c484	0.1765309
6	0x3d7032ee	0.05864232
7	0xbdf80a94	-0.121113926
8	0xbc939e45	-0.018019805
9	0x3d02b4c2	0.031910665
10	0x3e0f0e76	0.1397036
11	0x3dcd6f0d	0.10030947
12	0x3d5eb038	0.054367274
13	0x3c89c663	0.016818231
14	0x3ce3cd4c	0.027807854
15	0x3dbef2a3	0.09323623
16	0x3e4102bd	0.18848701
17	0x3e2b0c75	0.1670397
18	0x3e51279c	0.20425266
19	0x3e0925b5	0.1339329
20	0x3e7c984a	0.24667469
21	0x3e2e7d29	0.17039932
22	0x3e977a45	0.29585472
23	0x3e48be51	0.1960385
24	0x3e2e4891	0.1701987
25	0xbd9493dd	-0.07254765
26	0xbe6c332a	-0.23066393
27	0x3e11d528	0.14241469
28	0x3e91a082	0.2844277
29	0x3d97ad21	0.074060686
30	0x3d26e4a6	0.0407454
31	0xbdb3caee	-0.0877894
32	0xbe4944fe	-0.19655225
33	0x3e0fae79	0.140314
34	0x3dea48f1	0.11439694
35	0xbd264505	-0.040593166
36	0x3dea2a6d	0.11433873
37	0xbd100ce5	-0.035168547
38	0xbd38f746	-0.045157693
39	0x3da601c6	0.08105807
40	0xbe820bcc	-0.25399625
41	0xbe85e269	-0.261493
42	0xbd8a53cb	-0.067542635
43	0xbc6d8cbe	-0.014498888
44	0xbd864aa0	-0.06557202
45	0xbf1a74eb	-0.6033465
46	0x3b1e7aa6	0.002418199
47	0x3d1bed25	0.038067956
48	0x3d8afb09	0.067861624
49	0xbcf6eee0	-0.030143201
50	0xbe693957	-0.2277578
51	0xbe012321	-0.12611057
52	0xbe405aa2	-0.18784574
53	0x3bbc1791	0.005740114
54	0xbd50b400	-0.05095291
55	0x3e032215	0.1280597
56	0x3defaffd	0.11703489
57	0xbde0ec7d	-0.109826066
58	0x3db2ebde	0.08736394
59	0xbeafed9d	-0.34360972
60	0x3d942a0d	0.07234583
61	0xbdc10a39	-0.09425778
62	0xbda51838	-0.0806126
63	0xbdec18fd	-0.11528204
64	0x3e0ffa55	0.14060338
65	0xbea3971b	-0.31951222
66	0x3e6619c7	0.22470771
67	0x3d959ddd	0.07305501
68	0x3f07eedf	0.53098863
69	0x3e4102c9	0.18848719
70	0x3d4eed6a	0.050519384
71	0x3e3f3a6a	0.18674627
72	0x3f0fe2ee	0.5620564
73	0xbb9f66b3	-0.0048645376
74	0x3e86dcf5	0.26340452
75	0xbd324739	-0.043524954
76	0xbdb444bd	-0.08802173
77	0x3cf7f705	0.030269155
78	0x3ba14ce3	0.0049224957
79	0x3bfd515a	0.007730645
80	0x3ca907e6	0.02063365
81	0xbcd5ea98	-0.02611284
82	0x3d04ab1d	0.03238975
83	0x3d651713	0.05593021
84	0xbd3f41b7	-0.04669353
85	0xbde592d2	-0.112096444
86	0xbe8ba4ff	-0.2727432
87	0xbec3d2bb	-0.38246712
88	0xbe656eda	-0.22405568
89	0xbd2249e1	-0.039621238
90	0xbecb6ee1	-0.3973303
91	0xbf060ad2	-0.5236026
92	0xbef31b14	-0.47481596
93	0xbf019929	-0.5062433
94	0xbe8c5f1f	-0.27416322
95	0xbf23fc46	-0.64056814
96	0xbf19985b	-0.599981
97	0xbf259e43	-0.64694613
98	0xbf16be6d	-0.58884317
99	0xbe89a506	-0.26883715
100	0xbc386ecb	-0.011256884
101	0xbc935968	-0.017986968
102	0xbd09fc3b	-0.03368781
103	0xbe335b9c	-0.17515415
104	0xbdf6027b	-0.12012192
105	0x3b35394c	0.002765256
106	0x3d8f11fb	0.069858514
107	0x3e025938	0.12729347
108	0x3d36dea9	0.04464594
109	0x3d98e88f	0.07466232
110	0x3d9299a5	0.071582116
111	0x3dd12f3e	0.10214089
112	0x3df7beaf	0.12096917
113	0x3e589080	0.21148872
114	0x3e1f2d24	0.15544564
115	0xbd83fb53	-0.06444421
116	0xbd32120c	-0.043474242
117	0xbd3eb172	-0.046555944
118	0x3cbe262e	0.023211565
119	0xbd86a1fc	-0.06573865
120	0x3c162838	0.009164862
121	0x3c8a4ebc	0.016883247
122	0xbcdc4c97	-0.02689199
123	0xbdb62213	-0.08893218
124	0xbd2cae18	-0.042158216
125	0xbf2b5d00	-0.6693878
126	0xbecce435	-0.40017858
127	0xbda472cd	-0.08029709
128	0xbe72be01	-0.23705293
129	0xbd94e989	-0.07271106
130	0xbded851c	-0.11597654
131	0xbd5edb20	-0.054408193
132	0x3cb7f62e	0.022456255
133	0x3e54501a	0.20733681
134	0x3e150131	0.14551236
135	0x3ce909d1	0.028447064
136	0xbb08010e	-0.0020752582
137	0xbdb39a3a	-0.08769651
138	0xbe8e61e8	-0.27809072
139	0xbe91d6f5	-0.28484312
140	0x3dccc21a	0.099979594
141	0x3e04582b	0.12924258
142	0xbcd95fa3	-0.026534861
143	0xbdf61a79	-0.12016768
144	0x3d4ed960	0.050500274
145	0xbf458ef0	-0.7717123
146	0xbeff97af	-0.49920413
147	0xbed3fc0b	-0.4140323
148	0xbf094bdb	-0.5363137
149	0xbdfbc4bb	-0.12293383
150	0x3e7d5959	0.24741115
151	0x3e5e6994	0.21719962
152	0x3e106845	0.14102276
153	0x3e95fba6	0.29293555
154	0x3e917da6	0.28416175
155	0x3e1b603f	0.15173434
156	0x3cfab966	0.030605983
157	0x3d86229d	0.06549571
158	0x3e4655dc	0.1936869
159	0x3e4d50ee	0.20050403
160	0x3cf48cdd	0.029852325
161	0xbc6b12bb	-0.014347727
162	0x3d20146c	0.039081976
163	0xbcdc9c55	-0.026930014
164	0x3db076f9	0.08616442
165	0xbd8a2a56	-0.06746356
166	0xbdd9af72	-0.10629167
167	0x3c5de957	0.013544402
168	0xbd08fd00	-0.033444405
169	0x3d27a89c	0.040932283
170	0xbe051d9b	-0.12999575
171	0xbdda30e3	-0.10653856
172	0xbcb63165	-0.02224035
173	0xbc0a3112	-0.008434551
174	0x3da49a07	0.08037191
175	0x3e05bcd9	0.13060321
176	0x3e2f74f1	0.17134453
177	0x3d4cc5a0	0.049993157
178	0xbaedcc9b	-0.0018142642
179	0xbd955b1d	-0.07292769
180	0x3d900a77	0.07033246
181	0x3d79ff4c	0.061034486
182	0xbd81acf3	-0.063318156
183	0xbce198da	-0.027538706
184	0xbddb7f7c	-0.10717675
185	0x3d85ab56	0.0652682
186	0x3d05170c	0.032492682
187	0xbdf4e869	-0.11958391
188	0xbdc2744c	-0.09494838
189	0xbde157d2	-0.110030785
190	0x3cf4d6f6	0.029887658
191	0x3e214cdf	0.1575198
192	0x3e42323d	0.18964477
193	0x3e53fcd8	0.20701921
194	0x3e131340	0.14362812
195	0xbf0691b2	-0.52566063
196	0xbebbcf57	-0.36681625
197	0xbe1ed38e	-0.15510389
198	0xbe2c9626	-0.16854152
199	0xbe4a9150	-0.19781995
200	0x3e28c45b	0.16481154
201	0x3e93dfee	0.28881782
202	0x3d6d5e78	0.05795142
203	0xbebd7ed4	-0.37010825
204	0xbf052f50	-0.5202532
205	0x3e6f42df	0.23365353
206	0xbdac6d59	-0.08419294
207	0xbdf417d9	-0.11918611
208	0xbea436a0	-0.32072926
209	0xbedffec2	-0.43749052
210	0xbe97f1c6	-0.29676646
211	0xbf131c05	-0.5746463
212	0xbef11f80	-0.47094345
213	0xbe33d157	-0.17560326
214	0xbe9bcbd4	-0.30428946
215	0xbec8f1fd	-0.39247122
216	0xbe50fdba	-0.20409289
217	0xbdbd54e0	-0.09244704
218	0xbe11fee6	-0.14257392
219	0xbca78bac	-0.020452343
220	0xbf2b62fc	-0.66947913
221	0xbeb41924	-0.3517543
222	0xbe8a7839	-0.27044848
223	0xbe5e885c	-0.21731704
224	0xbe2ed2c0	-0.17072582
225	0xbe26bd8a	-0.16283241
226	0xbdab1cc5	-0.08355097
227	0x3d2ff74f	0.04296046
228	0x3e892288	0.26784158
229	0x3ded51a1	0.11587835
230	0x3dc6598f	0.09685051
231	0xbc802704	-0.015643604
232	0xbd1fb558	-0.038991302
233	0x3dc62403	0.096748374
234	0x3e1c3ed3	0.1525834
235	0xbd2c95ca	-0.042135037
236	0xbe2ce2d2	-0.168834
237	0xbc4d5b47	-0.012533969
238	0x3d8bc294	0.06824222
239	0x3e88c6b5	0.267141
240	0xbe6fe81d	-0.23428388
241	0x3bf41972	0.0074493224
242	0x3d83309f	0.06405758
243	0x3db0a99a	0.08626099
244	0x3e756684	0.23964888
245	0xbe4b4bd0	-0.19853139
246	0x3e0fc72d	0.14040823
247	0x3df492e2	0.11942078
248	0xbde8d79f	-0.113692515
249	0x3e89557a	0.26823026
250	0x3e2a1380	0.16609001
251	0x3cd23b77	0.02566312
252	0x3d712647	0.058874395
253	0x3d0df90e	0.034661345
254	0xbd24c896	-0.040230356
255	0x3cdbd087	0.026832832

conv2.bias f4 [16]
0	0x3bb1c3a2	0.0054249326
1	0x3ea5e1cd	0.32398835
2	0xbd4a5051	-0.049393002
3	0x3eefac4a	0.46811134
4	0xbda31840	-0.0796361
5	0x3e0cbf13	0.13744764
6	0x3e838ee6	0.2569496
7	0x3e6a7ec1	0.22899915
8	0xbdbe0d89	-0.092799254
9	0x3d923b20	0.071401834
10	0x3f10dc53	0.5658619
11	0x3f3f0e9f	0.74631685
12	0x3cb1a4ca	0.021685023
13	0x3f778bb6	0.96697557
14	0xbdd47b6e	-0.10375105
15	0x3e7bd556	0.245931

conv3.weight f4 [8, 16, 3, 3]
0	0x3d8089c8	0.0627628
1	0xbd2ad0a0	-0.041702867
2	0x3e217f02	0.15771106
3	0xbdbb0dc4	-0.09133485
4	0xbe67edc5	-0.22649296
5	0xbe32e230	-0.17469096
6	0x3d9bb9a9	0.07603771
7	0xbd543bea	-0.05181495
8	0x3c0f76d6	0.00875636
9	0x3c2ac28a	0.010422358
10	0x3d10f36e	0.035388403
11	0x3d5f19af	0.054467853
12	0xbd5bbe97	-0.053648558
13	0xbd054e8a	-0.032545604
14	0xbd5207a3	-0.051276814
15	0xbdd0b1a2	-0.10190131
16	0xbe09b866	-0.13449249
17	0x3dd36091	0.10321153
18	0x3c10fe1a	0.008849645
19	0x3c9890b8	0.018623695
20	0x3c1c8af2	0.0095546115
21	0x3d899381	0.06717587
22	0xbcbb7b51	-0.02288595
23	0x3d09d8f1	0.033654157
24	0xbd4ec975	-0.050485093
25	0x3ce8c2b7	0.02841316
26	0xbd585b8d	-0.052821685
27	0x3de557c0	0.111983776
28	0x3d7c35b2	0.061574645
29	0x3ea74c2d	0.32675305
30	0xbc400033	-0.0117187975
31	0xbc880250	-0.016602665
32	0x3d90ab27	0.07063895
33	0xbd5d6909	-0.054055247
34	0xbd4af6f0	-0.049551904
35	0x3bde29db	0.006779892
36	0xbd17c5a8	-0.037053734
37	0x3d9eb4a8	0.07749301
38	0x3dffc627	0.124889664
39	0xbe33a65a	-0.17543927
40	0xbd38bd98	-0.045102686
41	0xbb840543	-0.0040289476
42	0xbea2348a	-0.3168071
43	0xbe5d61be	-0.21619317
44	0xbdf40709	-0.11915404
45	0x3e83e439	0.25760058
46	0x3d53b7af	0.051688846
47	0x3c9e9cd4	0.01936189
48	0x3e2f6a54	0.17130405
49	0x3d2c96d2	0.04213602
50	0x3e010183	0.12598233
51	0x3d72f56a	0.059316076
52	0x3e2ee5a8	0.17079794
53	0x3e5806ab	0.21096294
54	0x3dd0f361	0.10202671
55	0x3e2324ea	0.1593205
56	0x3e3a6545	0.18202694
57	0xbdd3b0a6	-0.103364274
58	0xbd914742	-0.070936695
59	0xbcb3331a	-0.021874953
60	0xbdfe7e4c	-0.12426433
61	0xbe146354	-0.14491016
62	0xbd3e5b70	-0.04647392
63	0x3da77143	0.081759
64	0x3d43ac9b	0.04777203
65	0x3cba8426	0.022768091
66	0xbd4b8bd2	-0.04969389
67	0x3ce5ea95	0.028065959
68	0xbd8c4f64	-0.0685108
69	0xbe93eabf	-0.28890035
70	0x3c849bce	0.016187575
71	0xbe6b142a	-0.2295691
72	0xbe0f4397	-0.13990627
73	0xbe6fa24d	-0.23401757
74	0xbeb0990c	-0.34491765
75	0xbe1eb8db	-0.15500204
76	0x3cc3eb4d	0.023915911
77	0xbc9289ee	-0.017888036
78	0x3ea67010	0.32507372
79	0x3e6fbb45	0.23411281
80	0x3f04c4e8	0.51862955
81	0x3e4a367c	0.19747347
82	0x3d5d2444	0.053989664
83	0x3e3de7cb	0.18545453
84	0x3d71392b	0.05889241
85	0x390b9d2f	0.00013314628
86	0x3dbe9164	0.09305075
87	0x3be31e66	0.006931114
88	0xbd2b2eda	-0.041792728
89	0x3d4e90dd	0.05043112
90	0xbc2ad0b1	-0.0104257325
91	0xbd35b855	-0.044365246
92	0xbe3030d6	-0.1720613
93	0x3deaacf2	0.11458768
94	0x3d4c6125	0.04989733
95	0x3de14e92	0.11001314
96	0xbdfa32da	-0.122167304
97	0xbd8114e1	-0.063028105
98	0x3d73a213	0.059480738
99	0xbecd2795	-0.4006926
100	0x3c47f34a	0.012204001
101	0xbb7c754b	-0.003852206
102	0xbe944d42	-0.28965193
103	0xbdda22ba	-0.10651155
104	0x3df95cd7	0.12175911
105	0xbe7aca06	-0.24491128
106	0xbe8e62a0	-0.2780962
107	0xbe862be4	-0.2620536
108	0x3c996f5b	0.018729856
109	0xbd34a829	-0.044105683
110	0xbe4f8afc	-0.20267862
111	0x3e0acf45	0.1355563
112	0xbc8161ac	-0.015793644
113	0x3dad1233	0.08450737
114	0x3e407365	0.1879402
115	0x3df29364	0.11844519
116	0x3d8f9dab	0.07012495
117	0xbe140d1e	-0.14458129
118	0x3e011aae	0.12607834
119	0x3e0821f7	0.13294207
120	0xbe1dc6c4	-0.15407854
121	0xbe25c849	-0.16189684
122	0x3c131b74	0.008978713
123	0xbf3f1e15	-0.74655277
124	0xbecdcc31	-0.40194848
125	0xbde8816a	-0.11352809
126	0x3e36d767	0.17855607
127	0x3d19451a	0.037419416
128	0xbd29e9fe	-0.041482918
129	0x3c8a1190	0.016854078
130	0xbb07dcbc	-0.0020730933
131	0xbe70e593	-0.23525076
132	0x3c052f25	0.008128916
133	0x3ce2e849	0.027698653
134	0xbd10f44a	-0.035389222
135	0x3d38b43c	0.04509376
136	0x3d283dd3	0.041074585
137	0x3e0893b6	0.13337597
138	0xbc936525	-0.017992565
139	0x3d1dd7df	0.03853595
140	0x3ca26004	0.019821174
141	0xbe033a7b	-0.12815277
142	0x3d22db21	0.03975976
143	0x3d582549	0.052769933
144	0xbdd69b50	-0.10478842
145	0x3d89ac6f	0.06722342
146	0xbd7968f7	-0.060891118
147	0x3deb6425	0.114937104
148	0x3da83ef9	0.08215136
149	0x3b8f7323	0.004377739
150	0xbdab3ae4	-0.08360842
151	0x3d5234ca	0.051319875
152	0x3d0707db	0.032966476
153	0xbdfce7f2	-0.123489276
154	0xbdbc1e08	-0.091854155
155	0xbf36e4f1	-0.71443087
156	0xbc0d61b6	-0.008629253
157	0x3d4b5597	0.04964217
158	0xbdd2a80d	-0.102859594
159	0xbdbc0ecf	-0.09182512
160	0x3dfa3921	0.12217928
161	0x3de43bf9	0.111442514
162	0xbdd6d0a9	-0.104890175
163	0xbdae01a0	-0.08496404
164	0xbe0ee596	-0.13954768
165	0x3b0c94f8	0.0021451097
166	0xbdcb578d	-0.09928808
167	0xbda14547	-0.07874542
168	0xbecc8f37	-0.39953014
169	0xbdd2629d	-0.10272715
170	0xbedd1297	-0.43178245
171	0xbdfc5c47	-0.12322288
172	0x3d8e4630	0.06946981
173	0xbd8a8cc9	-0.06765134
174	0x3d9f4223	0.077762865
175	0x3dbed4e4	0.093179494
176	0x3d271bed	0.040798116
177	0x3cff5e70	0.031172961
178	0x3d1d949c	0.038471803
179	0x3d146a8d	0.036234427
180	0xbe33d2c1	-0.17560865
181	0x3e0e572c	0.13900441
182	0x3e79dedd	0.24401422
183	0x3d925790	0.071456075
184	0x3e7bc8d7	0.24588333
185	0x3e2aab38	0.16666877
186	0x3e6596d5	0.22420819
187	0x3e8e7e83	0.27830896
188	0x3de6f2f8	0.11276811
189	0xbf035eab	-0.51316327
190	0xbee99947	-0.45624754
191	0xbee99f06	-0.45629138
192	0xbe5696cb	-0.2095596
193	0xbef078f8	-0.46967292
194	0xbe02fae6	-0.12791023
195	0xbda9232e	-0.08258663
196	0xbde97445	-0.1139913
197	0xbd1ec43e	-0.03876137
198	0x3e69e691	0.2284186
199	0x3d5d4f26	0.05403056
200	0xbeac6b38	-0.3367555
201	0x3ef97938	0.48725295
202	0x3e4c5c64	0.19957119
203	0xbe726d85	-0.23674591
204	0x3dbe3097	0.092866115
205	0xbcf57bf4	-0.029966332
206	0xbf53e27a	-0.8276745
207	0x3d96a277	0.073552065
208	0x3d88cfcd	0.0668026
209	0x3e4a3017	0.19744907
210	0xbdcefcb4	-0.10106793
211	0x3db85b72	0.09001817
212	0x3d299416	0.04140099
213	0xbec2ece0	-0.38071346
214	0xbd70b78f	-0.058768805
215	0xbbebe70b	-0.0071991733
216	0x3c6992ec	0.01425622
217	0x3e8a7b74	0.27047312
218	0x3e985ea0	0.29759693
219	0x3de017ba	0.109420255
220	0xbcb88131	-0.02252254
221	0xbdb50f2e	-0.08840786
222	0x3e42c891	0.19021823
223	0xbae9f1ce	-0.0017848553
224	0xbe068d09	-0.13139738
225	0xbd8711ef	-0.065952174
226	0xbd54c661	-0.051947
227	0x3c50f0f8	0.012752764
228	0xbdb2116b	-0.086947285
229	0xbc54b582	-0.012982728
230	0xbdaae171	-0.08343781
231	0xbe720e36	-0.23638234
232	0xbdb983a0	-0.090583086
233	0xbdef17af	-0.11674439
234	0xbdcdb2bf	-0.10043859
235	0xbdf7bd71	-0.1209668
236	0xbdd255fb	-0.10270306
237	0xbdbc6284	-0.09198478
238	0xbe01b96f	-0.12668394
239	0xbe157af5	-0.14597686
240	0x3dc269e4	0.09492853
241	0x3e37504f	0.17901729
242	0x3e9a89fc	0.301834
243	0x3eb51125	0.35364643
244	0x3e1d9924	0.1539045
245	0xbce6cd43	-0.028174048
246	0x3e3dda45	0.18540294
247	0x3ddb0db5	0.10695974
248	0xbe2a5624	-0.16634423
249	0x3d191fa5	0.037383694
250	0x3cdfc62b	0.027316174
251	0xbed8ebcd	-0.42367402
252	0x3d8f9336	0.070105
253	0x3d8eb10d	0.069673635
254	0x3e4ea66c	0.20180672
255	0xbc7e174c	-0.015508484

conv3.bias f4 [8]
0	0x3e9f4ba2	0.3111239
1	0x3dab2104	0.083559066
2	0x3ee55196	0.44788808
3	0x3e7ea47d	0.24867435
4	0x3e979358	0.29604602
5	0x3df1901d	0.117950656
6	0x3edeaa11	0.43489125
7	0x3d42e87e	0.047585003

convt1.weight f4 [8, 8, 3, 3]
0	0x3e1c8cdc	0.15288109
1	0xbd04e64b	-0.032446187
2	0x3d8eafb1	0.06967104
3	0xbda8de11	-0.08245481
4	0xbe55e742	-0.20888999
5	0x3d6f9833	0.058494758
6	0x3de0d9c1	0.10979033
7	0x3bff395d	0.0077888207
8	0xbe10b7bc	-0.14132589
9	0x3e33da62	0.17563775
10	0xbee3a067	-0.44458315
11	0x3d9c5964	0.076342374
12	0xbea596dc	-0.3234166
13	0xbc84ce29	-0.016211586
14	0xbe953c81	-0.29147723
15	0xbe0a8184	-0.13525969
16	0xbc4252a8	-0.011860527
17	0xbe3b5422	-0.18293813
18	0xbddcceff	-0.10781669
19	0xbeecc355	-0.46242777
20	0xbd78563f	-0.060629126
21	0xbeb8eea4	-0.36119568
22	0xbf08b3d2	-0.53399384
23	0xbcf13c4d	-0.029447699
24	0xbdb12d02	-0.08651163
25	0x3c05be19	0.008162999
26	0x3dc1b06b	0.09457477
27	0x3e998c4a	0.29989845
28	0xbd899b0b	-0.06719025
29	0xbeb46844	-0.35235798
30	0x3e2595c2	0.1617041
31	0xbcac9122	-0.021065298
32	0xbe428074	-0.18994313
33	0x3dbafe85	0.09130577
34	0xbdc93e8f	-0.09826385
35	0xbdad9a6d	-0.0847672
36	0x3e185eb9	0.14879884
37	0x3db6c1de	0.08923696
38	0x3c1afd3a	0.009459788
39	0xbeb35ccc	-0.35031736
40	0xbd050ebe	-0.032484762
41	0x3d06f188	0.032945186
42	0xbdb463ab	-0.08808073
43	0xbdf953d8	-0.12174195
44	0xbe014df5	-0.12627394
45	0xbea8f86b	-0.33002028
46	0x3e2d2183	0.16907315
47	0xbd3294a2	-0.04359878
48	0xbc0f69e7	-0.008753276
49	0x3dd79588	0.10526568
50	0xbefd7d75	-0.4950978
51	0xbe7c6958	-0.2464956
52	0x3baa8691	0.00520403
53	0x3e511748	0.20419037
54	0xbd84962b	-0.06473955
55	0xbebde2b1	-0.37087014
56	0xbde6633c	-0.11249396
57	0x3d1576ca	0.03649024
58	0xbdbbdf2e	-0.091734275
59	0xbd56ae25	-0.05241217
60	0xbd05bbe5	-0.032649893
61	0x3e01023f	0.12598513
62	0x3daee4fa	0.085397676
63	0x3ddc36fd	0.10752676
64	0xbd21fde6	-0.039548777
65	0x3d63d4d3	0.055622887
66	0x3db52e64	0.08846739
67	0x3e0b529b	0.1360573
68	0x3d37153c	0.044697985
69	0x3e9fbf9f	0.31200883
70	0xbbecc474	-0.0072255675
71	0xbcbb56cc	-0.022868536
72	0xbe4ae600	-0.198143
73	0xbd987078	-0.07443327
74	0x3da8f129	0.08249123
75	0x3cc59a41	0.024121406
76	0x3e06fc23	0.1318212
77	0xbd977314	-0.07394996
78	0xbe1cf4d2	-0.15327767
79	0xbe338c01	-0.17533876
80	0x3e26267a	0.16225615
81	0x3e2900a6	0.16504154
82	0x3cd70588	0.026247755
83	0x3e034619	0.12819709
84	0x3cd37f8a	0.025817651
85	0x3dd32455	0.10309664
86	0xbdb10336	-0.086431906
87	0xbcf744d2	-0.030184183
88	0x3e072551	0.13197829
89	0x3dac29e5	0.08406428
90	0xbc0968b7	-0.008386782
91	0xbddf1998	-0.108935535
92	0x3d2bcace	0.041941456
93	0x3c1ae7b6	0.009454658
94	0xbd802f5f	-0.06259035
95	0x3cdffbb4	0.027341701
96	0x3c0011ed	0.007816774
97	0x3e0b90ec	0.13629502
98	0x3df093d8	0.11746949
99	0xbc8117f2	-0.015758488
100	0xbc83d2de	-0.01609176
101	0xbe404756	-0.18777213
102	0xbf575b78	-0.84123945
103	0xbe5efd16	-0.21776232
104	0xbdcc1b82	-0.09966184
105	0x3d4c49a8	0.04987493
106	0x3db3dfb6	0.08782904
107	0x3e0c1c6d	0.13682719
108	0xbc0faeba	-0.008769685
109	0xbcfb2909	-0.030659216
110	0xbce4eb97	-0.02794437
111	0x3d9cf61b	0.076641284
112	0x3d504745	0.050849218
113	0x3df3e0ab	0.119080864
114	0x3dae6d47	0.08516937
115	0xbe0631af	-0.1310489
116	0xbd84cf94	-0.06484905
117	0x3d1ea8d7	0.038735237
118	0x3db8fb33	0.090322874
119	0x3d5b2ffa	0.05351255
120	0x3e4f96f1	0.20272423
121	0xbd454f4e	-0.048171334
122	0x3ddb6e96	0.10714452
123	0x3d1a0f34	0.037612155
124	0x3cd8ca7c	0.02646374
125	0x3e849c16	0.25900334
126	0xbe7f512b	-0.24933307
127	0xbe578a5c	-0.21048874
128	0xbe9b3103	-0.3031083
129	0xbe70ee3b	-0.23528378
130	0x3c9bfc57	0.019041223
131	0xbdec5151	-0.115389474
132	0xbd886b44	-0.06661084
133	0xbe9c859d	-0.3057069
134	0xbcc5c330	-0.024140924
135	0xbd04f40c	-0.032459304
136	0x3e092bf3	0.13395672
137	0xbc26d829	-0.010183373
138	0xbd0bfafd	-0.034174908
139	0x3cc194bd	0.023630494
140	0x3da96605	0.08271412
141	0xbddba042	-0.10723926
142	0x3d85227f	0.0650072
143	0xbd72e7b6	-0.059303008
144	0x3cde265e	0.027117904
145	0xbfaa84c2	-1.3321764
146	0xbd86d51f	-0.065836184
147	0x3d225497	0.039631452
148	0xbe2ba8d9	-0.16763629
149	0xbd3d63b9	-0.04623768
150	0xbbbcff52	-0.0057677412
151	0xbda8bfbf	-0.08239698
152	0xbdfd54da	-0.123697
153	0x3e1046a9	0.14089455
154	0xbe7b239a	-0.245253
155	0x3d28236f	0.041049417
156	0xbe175e3d	-0.14782043
157	0x3d6aa064	0.057281867
158	0xbd9f2956	-0.07771556
159	0x3dc29b7f	0.09502315
160	0xbd6e4236	-0.058168612
161	0x3d2988e8	0.04139033
162	0xbbec46b4	-0.007210577
163	0xbd8470cf	-0.06466829
164	0xbe01c15d	-0.12671418
165	0xbdb5eada	-0.08882685
166	0xbd4ffcba	-0.05077813
167	0x3e5bad6b	0.21452872
168	0xbd6aa5ab	-0.0572869
169	0xbe422cf1	-0.18962456
170	0xbe283776	-0.16427407
171	0x3d3090bb	0.043106776
172	0xba7bc3b6	-0.00096040533
173	0xbe0ba339	-0.13636483
174	0xbddda311	-0.10822118
175	0xbe34d3c9	-0.17658915
176	0x3e1d302c	0.15350407
177	0xbddefe03	-0.10888293
178	0x3e835e6b	0.25657973
179	0xbda37f99	-0.07983322
180	0x3d92eb20	0.07173753
181	0xbd0477f3	-0.032340955
182	0x3da8b11b	0.08236905
183	0x3dbaf118	0.09128016
184	0x3c4cc96d	0.0124991955
185	0x3bc56b5f	0.0060247625
186	0x3cb9ec27	0.022695614
187	0x3caaa959	0.020832704
188	0x3d7bce5b	0.061476093
189	0xbeecf7ff	-0.46282956
190	0x3daec108	0.085329115
191	0xbee9f117	-0.4569175
192	0x3db111e3	0.0864599
193	0x3e0eefa8	0.13958609
194	0x3d8fd73e	0.07023476
195	0x3d813ac2	0.06310035
196	0x3cd5f452	0.026117478
197	0xbe02183d	-0.12704559
198	0x3dbba658	0.09162587
199	0x3b94f0d6	0.0045453114
200	0x3d92cea8	0.07168323
201	0xbf1413b6	-0.57842577
202	0xbdad41b5	-0.08459798
203	0xbe337edc	-0.17528862
204	0xbd010dfa	-0.03150747
205	0xbcb08466	-0.021547507
206	0xbd094fd3	-0.033523392
207	0x3d8015dd	0.0625417
208	0xbd834379	-0.06409354
209	0x3d5d006b	0.053955477
210	0x3cde5e7e	0.027144667
211	0x3e7f57f4	0.24935895
212	0x3e0e64c3	0.13905625
213	0x3d6fdd4a	0.058560647
214	0xbf41cea8	-0.7570596
215	0x3e4e1eba	0.20128909
216	0xbe3ed054	-0.18634158
217	0xbeeeab11	-0.46614888
218	0x3b459655	0.003014942
219	0xbcf03df9	-0.029326426
220	0xbe0c2dc5	-0.13689335
221	0xbd17d44a	-0.03706769
222	0xbe894dfa	-0.26817304
223	0xbd81f858	-0.06346196
224	0x3e778427	0.24171506
225	0x3e3a30bd	0.18182655
226	0x3e7d7f6d	0.2475564
227	0x3dd18b5e	0.1023166
228	0x3ced7279	0.028985249
229	0xbe210deb	-0.15727966
230	0x3dbff6c2	0.09373237
231	0xbf1a017e	-0.60158527
232	0xbdce9725	-0.10087422
233	0xbe3da284	-0.18519026
234	0xbce927b7	-0.02846132
235	0x3c1e7a6b	0.009672741
236	0x3da2a792	0.07942118
237	0x3d6e83e7	0.05823126
238	0xbdd39add	-0.10332272
239	0xbea10e7f	-0.31456372
240	0xbe102abe	-0.14078805
241	0xbd35914c	-0.04432802
242	0xbe0f54c5	-0.13997181
243	0xbae01c5d	-0.0017098297
244	0xbe1095ec	-0.1411969
245	0x3ec3b20e	0.38221782
246	0x3b083c37	0.0020787844
247	0xbde59971	-0.11210907
248	0xbe0a6081	-0.13513376
249	0xbdf96617	-0.12177675
250	0x3df59260	0.119908094
251	0x3c34f998	0.011045836
252	0xbd7d826e	-0.061891966
253	0x3da8db30	0.08244932
254	0xbd4208bc	-0.04737161
255	0x3e02af1a	0.12762108

convt1.bias f4 [8]
0	0x3e95fb7a	0.29293424
1	0x3e2f048d	0.1709158
2	0x3dab18e6	0.083543584
3	0xbcfe4560	-0.03103894
4	0x3e025077	0.12726007
5	0x3ebbf131	0.36707452
6	0xbe1776da	-0.14791432
7	0x3baf1bff	0.0053439136

convt2.weight f4 [8, 16, 5, 5]
0	0xbd66c104	-0.056336418
1	0xbe7a1dd0	-0.24425435
2	0xbd743f3c	-0.059630617
3	0xbf0fd843	-0.56189364
4	0xbca602d5	-0.020265022
5	0xbc9b2bec	-0.018941842
6	0xbcd77d16	-0.026304763
7	0xbf1c74f5	-0.6111596
8	0xbdf6c312	-0.120489255
9	0x3dc7badf	0.0975244
10	0xbd6d83a7	-0.05798688
11	0x3d62edbb	0.0554025
12	0xbd9fb076	-0.07797329
13	0xbe465690	-0.19368958
14	0x3d617753	0.055045437
15	0xbe168039	-0.1469735
16	0xbd543e87	-0.051817443
17	0xbe9f6781	-0.31133655
18	0xbd34c08e	-0.044128947
19	0xbd780197	-0.06054839
20	0x3d4598db	0.048241477
21	0x3cac23d0	0.02101317
22	0x3db71842	0.08940174
23	0xbdac16a3	-0.08402755
24	0x3e0cae13	0.13738279
25	0x3e8be1cf	0.27320716
26	0xbd1a243e	-0.03763222
27	0x3e29c80e	0.16580221
28	0x3dba584d	0.09098873
29	0x3e14934b	0.14509313
30	0xbe435dce	-0.19078752
31	0xbd546e7b	-0.051863175
32	0x3d151f30	0.036406696
33	0xbd918d95	-0.07107083
34	0x3e1fb205	0.15595253
35	0xbc1d3189	-0.00959433
36	0xbd9838dd	-0.07432721
37	0xbe14e3f7	-0.14540087
38	0xbe02bb4c	-0.1276676
39	0xbda9c25a	-0.08289023
40	0xbe1441cb	-0.14478223
41	0xbe16ec24	-0.14738518
42	0xbd12124a	-0.035661973
43	0x3c1a458f	0.009415998
44	0xbbaaf403	-0.0052170767
45	0x3c36066e	0.011109931
46	0xbe31b14f	-0.17352794
47	0x3c38b482	0.011273505
48	0xbe3a2e81	-0.18181802
49	0xbe989627	-0.29802057
50	0xbd8803ad	-0.06641326
51	0xbd7ff526	-0.06248965
52	0x3d85d0c8	0.065339625
53	0xbea30d86	-0.31846255
54	0xbd68c12e	-0.056824856
55	0xbe075177	-0.1321467
56	0x3be67b76	0.0070337607
57	0xbf1d56aa	-0.61460364
58	0xbd5fa2c4	-0.054598585
59	0x3de83fb9	0.11340279
60	0xbce5caf0	-0.02805087
61	0x3c356136	0.01107054
62	0xbed3a13a	-0.41333944
63	0xbe275ba5	-0.16343553
64	0x3e36bf2c	0.17846364
65	0xbdff5d59	-0.124689765
66	0xbdb640b4	-0.0889906
67	0xbea7fd9b	-0.32810673
68	0xbd0f9a21	-0.0350591
69	0xbdc2465c	-0.09486076
70	0xbcf53700	-0.029933453
71	0x3dff6755	0.12470881
72	0xbd6867eb	-0.05673973
73	0x3c51723d	0.012783584
74	0x3b148b06	0.0022665872
75	0xbddc31b4	-0.107516676
76	0x3cd4ab1d	0.0259605
77	0xbc64d62f	-0.013967081
78	0xbddfd920	-0.10930085
79	0xbca776d3	-0.020442402
80	0xbd8e31bb	-0.06943079
81	0x3e0ac88d	0.13553067
82	0xbdcf1f72	-0.101134196
83	0x3da7ba29	0.08189804
84	0xbe635795	-0.22201379
85	0x3dd8f89f	0.10594296
86	0xbebb1f52	-0.36547333
87	0x3c383a5a	0.011244381
88	0x3da3ddaf	0.08001267
89	0xbb1ff930	-0.0024410002
90	0xbde6bcfa	-0.11266513
91	0xbdbe05ff	-0.092784874
92	0xbe254300	-0.1613884
93	0x3c4a7b0b	0.012358437
94	0xbf06b439	-0.5261875
95	0x3ed79e14	0.42112792
96	0x3ae0c027	0.001714711
97	0xbf2158f5	-0.6302636
98	0xbe1b297c	-0.15152544
99	0xbecfbd79	-0.40574244
100	0x3e64dcc5	0.22349842
101	0x3d9dbc3d	0.07701919
102	0xbd70990b	-0.058739703
103	0x3e77d580	0.24202538
104	0x3d5d56bb	0.05403779
105	0x3eafb6cd	0.34319153
106	0xbdfb2ac2	-0.12264015
107	0xbc6ec321	-0.01457289
108	0x3e6d173d	0.23153396
109	0xbe2e6cb1	-0.1703365
110	0x3e8a6c64	0.2703582
111	0xbd237f0c	-0.039916083
112	0x3c8634a9	0.016382532
113	0x3e0a6a94	0.13517219
114	0xbdf9b0eb	-0.121919475
115	0xbdcf2b4c	-0.1011568
116	0x3e54d5e9	0.20784725
117	0xb91f1f18	-0.00015175005
118	0x3d2a289b	0.04154263
119	0xbe5312d9	-0.20612659
120	0xbda449eb	-0.08021911
121	0x3b86bd6f	0.0041119377
122	0x3e27e7d9	0.16397037
123	0xbe5df6c4	-0.21676165
124	0xbe9ef434	-0.31045687
125	0xbc2d6afa	-0.010584587
126	0x3ddd072c	0.107923836
127	0x3dc7ff3c	0.09765479
128	0xbd7185b9	-0.05896542
129	0x3dc1d9e3	0.09465387
130	0x3cc01045	0.023445258
131	0xbe704c35	-0.2346657
132	0x3d1b51b7	0.037919726
133	0xbe31c7f5	-0.17361434
134	0xbd564a9b	-0.052317243
135	0xbd4ffd81	-0.05077887
136	0xb9d2d07b	-0.0004020965
137	0xbe44917f	-0.19196127
138	0x3b999dd6	0.004688005
139	0x3d81e29f	0.06342053
140	0xbd2fbcdc	-0.04290472
141	0x3d09c91a	0.03363905
142	0xbad2b36f	-0.0016075204
143	0xbdd87eb7	-0.10571044
144	0xbdac3504	-0.084085494
145	0x3c0187f2	0.007905947
146	0xbdd0c61d	-0.10194037
147	0xbebe8563	-0.3721114
148	0x3db8838f	0.09009468
149	0x3dd4cc64	0.10390547
150	0xbe0be6a1	-0.13662197
151	0xbf30c678	-0.6905284
152	0xbdf720a7	-0.12066775
153	0xbea97982	-0.33100516
154	0xbcd2a78e	-0.025714662
155	0xbe6355f2	-0.22200754
156	0xbe0439a7	-0.12912618
157	0xbdccc5ac	-0.099986404
158	0xbe427d4e	-0.18993112
159	0x3c8e33d9	0.017358707
160	0x3da4a0fa	0.08038516
161	0xbe95182c	-0.29120004
162	0xbd58fc47	-0.052974965
163	0x3dc9f9e5	0.09862117
164	0xbdd52af3	-0.104085825
165	0x3d970fea	0.07376082
166	0x3ce69a29	0.028149681
167	0xbea3f585	-0.32023254
168	0x3c1a91f5	0.009434213
169	0xbd452a56	-0.048136078
170	0x3deacdf5	0.114650644
171	0xbed2f36a	-0.41201335
172	0x3d563571	0.05229706
173	0x3d6b32e1	0.05742157
174	0xbba8b7de	-0.005148872
175	0x3de7f1f7	0.11325448
176	0xbe685c96	-0.22691569
177	0x3e211c1b	0.15733378
178	0x3d3d091c	0.046151266
179	0x3de7a472	0.11310662
180	0xbd5846b5	-0.052801806
181	0xbf050d0b	-0.51973027
182	0x3cce7152	0.02520052
183	0xbe2fffe6	-0.17187461
184	0x3e377502	0.17915729
185	0xbd60d66d	-0.054891992
186	0xbeb82fc1	-0.35973933
187	0xbd454364	-0.04815997
188	0x3df32b7a	0.11873527
189	0x3d6bdf66	0.057586096
190	0xbd230378	-0.03979823
191	0x3e01f482	0.12690929
192	0xbe5cdc8e	-0.2156851
193	0xbd034b06	-0.03205397
194	0xbdbb83a2	-0.09155966
195	0xbdd2ab76	-0.1028661
196	0x3e65fc76	0.22459587
197	0xbe19b2f7	-0.15009676
198	0xbe7e997a	-0.24863234
199	0x3cc06d2b	0.023489555
200	0xbe85882b	-0.2608045
201	0xbc57c076	-0.013168445
202	0xbd7e8d1c	-0.06214629
203	0x3dcc27f8	0.09968561
204	0x3c39ed14	0.011348028
205	0x3de0936d	0.10965619
206	0xbc8881b4	-0.01666341
207	0x3e270fcc	0.1631462
208	0x3da3f6ea	0.080060795
209	0xbd69b4fd	-0.05705737
210	0x3df1af1f	0.1180098
211	0xbe79f046	-0.24408063
212	0xbe02a924	-0.12759835
213	0x3c892da6	0.0167454
214	0xbec88287	-0.39162084
215	0x3dedaa95	0.116048016
216	0xbdad5447	-0.0846334
217	0xbeb10c5f	-0.3457975
218	0xbbdc7050	-0.006727256
219	0x3d91af11	0.071134694
220	0x3d588cc7	0.05286863
221	0x3e137602	0.14400485
222	0x3e3e49ef	0.18582891
223	0x3dd973fe	0.10617827
224	0x3c06020b	0.008179198
225	0x3d9c773b	0.07639929
226	0xbc39ccbb	-0.011340315
227	0xbc2eae19	-0.010661625
228	0xbef32f84	-0.4749719
229	0xbdbbe6fd	-0.09174917
230	0x3e4d9a5d	0.20078416
231	0x3d3d0685	0.046148796
232	0x3e14ada4	0.14519364
233	0xbe47fe4f	-0.19530605
234	0xbe6cc8df	-0.23123501
235	0xbe931012	-0.28723198
236	0x3e0436d3	0.12911539
237	0x3e2b2457	0.16713081
238	0xbd2f960b	-0.0428677
239	0x3dde5598	0.108561695
240	0x3dc2b50b	0.095071875
241	0xbd494ade	-0.049143665
242	0xbe17e175	-0.14832099
243	0x3d339dd1	0.043851677
244	0x3ce6cb0c	0.028172992
245	0xbe9a8319	-0.30178145
246	0x3d75e7f0	0.060035646
247	0x3e160cf5	0.1465338
248	0xbe465a3f	-0.19370364
249	0x3e5e5774	0.21713048
250	0xbdb49b8b	-0.0881873
251	0xbed2a155	-0.41138712
252	0x3d3a6e01	0.045515064
253	0xbd548ef7	-0.051894154
254	0x3e0dac6f	0.1383531
255	0x3e0a623d	0.13514037

convt2.bias f4 [16]
0	0x3e416cf8	0.18889225
1	0x3d4894be	0.048969977
2	0x3df55c77	0.11980527
3	0x3cc6ea41	0.024281623
4	0x3db6a9e5	0.089191236
5	0x3e0d9e9f	0.1383004
6	0x3cb52379	0.022111641
7	0x3e1f33b7	0.15547071
8	0xbd764a64	-0.06012954
9	0xbf0f9ff9	-0.56103474
10	0x3de2ba10	0.11070645
11	0x3df10917	0.11769312
12	0x3d6df167	0.058091547
13	0xbd700435	-0.058597762
14	0x3d54a543	0.05191542
15	0x3d86bc5f	0.06578898

convt3.weight f4 [16, 32, 9, 9]
0	0xbe893eda	-0.26805764
1	0xbeb2e1b6	-0.3493783
2	0x3cceee7d	0.025260204
3	0xbe3f459d	-0.18678899
4	0xbe77f8c2	-0.24215987
5	0x3dde11e7	0.10843258
6	0xbe0554ef	-0.13020681
7	0x3cae41bc	0.021271579
8	0x3dcad0c2	0.09903099
9	0xbe3df0c0	-0.1854887
10	0x3ce0b287	0.027428878
11	0xbdd96a7f	-0.10616016
12	0xbe65d244	-0.22443491
13	0xbbe8f950	-0.0071097985
14	0xbdcb46e6	-0.09925632
15	0x3da9528b	0.08267697
16	0x3d2b6d7a	0.04185245
17	0x3dabb222	0.083835855
18	0xbd8bc046	-0.068237826
19	0xbe0c21fc	-0.13684839
20	0x3e0c7302	0.13715747
21	0xbb3df7fd	-0.0028986924
22	0xbe8be66d	-0.27324238
23	0xbbeb2a38	-0.0071766637
24	0x3dd49d46	0.1038156
25	0x3e2982ba	0.16553774
26	0xbe016b7d	-0.1263866
27	0x3ce37dfb	0.027770033
28	0xbe0d7e40	-0.13817692
29	0x3d80bd08	0.06286055
30	0xbed4dcba	-0.4157465
31	0xbe3f0d8c	-0.18657511
32	0x3ddf0c17	0.10890978
33	0xbdc52791	-0.09626687
34	0xbebb227c	-0.36549747
35	0x3d851f77	0.06500142
36	0xbf0b3c98	-0.54389334
37	0x3d8bb830	0.0682224
38	0x3d9925c6	0.07477908
39	0xbe4dbe20	-0.20092058
40	0xbdc0fa07	-0.09422689
41	0xbe717dc5	-0.23583134
42	0xbf174d5b	-0.5910241
43	0xbe7c35c2	-0.24629882
44	0x3d244a6c	0.040110037
45	0x3b988018	0.004653942
46	0xbf6de7f3	-0.9293205
47	0xbe3ed474	-0.18635732
48	0xbe32a157	-0.17444359
49	0x3d46d5a2	0.04854358
50	0xbf4b9431	-0.79523
51	0x3e0dc18a	0.1384336
52	0xbdd79947	-0.10527282
53	0xbe4de6e3	-0.20107608
54	0xbd2e03b2	-0.042483993
55	0x3cb4dafd	0.022077078
56	0x3da00195	0.07812802
57	0xbece5827	-0.4030163
58	0x3cc9a597	0.024615092
59	0x3d84bf0a	0.0648175
60	0xbdc27002	-0.0949402
61	0xbd9cdf46	-0.076597735
62	0x3d4623e6	0.04837408
63	0x3e350c63	0.17680506
64	0x3ca1747c	0.019708864
65	0x3e206206	0.15662393
66	0xbe34302b	-0.175965
67	0xbe19b403	-0.15010075
68	0xbdf9f939	-0.122057386
69	0xbe604d7c	-0.21904558
70	0xbdfeb935	-0.12437669
71	0xbe258ac8	-0.16166222
72	0x3df40090	0.1191417
73	0x3e37e4ef	0.17958425
74	0xbcf02465	-0.02931423
75	0x3da4a31b	0.080389224
76	0x3d2f9fda	0.042877056
77	0xbcc47d76	-0.023985606
78	0x3ddd1c29	0.10796387
79	0xbe323a9a	-0.17405167
80	0xbe824f31	-0.25451043
81	0x379b473f	1.8510616e-05
82	0xbe83a1f5	-0.257095
83	0x3e5b7dcc	0.21434706
84	0x3db49636	0.08817713
85	0xbe04ddc3	-0.1297522
86	0x3da87fe3	0.082275175
87	0x3d8898a4	0.06669739
88	0xbe324801	-0.1741028
89	0xbdd3fc87	-0.103509
90	0xbecff57e	-0.40616983
91	0x3e19d947	0.15024291
92	0x3e0e3e84	0.13891035
93	0xbdd4e5a6	-0.103953645
94	0xbc46168d	-0.012090337
95	0x3e468f7d	0.19390674
96	0xbc9acdeb	-0.018897017
97	0x3d42735d	0.0474733
98	0x3e239a2c	0.1597678
99	0xbddd1b92	-0.10796274
100	0xbe46bc39	-0.19407739
101	0x3dcd6771	0.100294955
102	0xbd4883f3	-0.04895396
103	0x3d68ba0b	0.05681805
104	0xbd65b586	-0.056081317
105	0x3d384e80	0.04499674
106	0xbdf1a053	-0.117981575
107	0xbae72348	-0.0017634416
108	0xbe12ce73	-0.14336567
109	0x3d871689	0.06596095
110	0x3d6aa8cd	0.057289887
111	0xbdda7b94	-0.10668102
112	0x3e5fd228	0.21857512
113	0xbcb0202a	-0.021499712
114	0xbe0cd4b8	-0.13753021
115	0x3e219182	0.15778163
116	0x3c8a5fd8	0.016891405
117	0x3da62343	0.081121944
118	0x3e825ce8	0.25461507
119	0x3daacaad	0.083394386
120	0xbe690b87	-0.22758304
121	0xbe30c74c	-0.17263526
122	0x3dfada70	0.12248695
123	0x3dd259f9	0.10271067
124	0xbc85fc08	-0.01635553
125	0x3e36cf52	0.17852524
126	0xbe4d0a4d	-0.2002346
127	0xbe24b707	-0.16085444
128	0x3d34c41c	0.044132337
129	0x3dc68ab1	0.09694422
130	0x3d718417	0.05896386
131	0xbcc7cac4	-0.024388678
132	0x3d2bc5ab	0.041936558
133	0x3e35f4ab	0.17769115
134	0xbd23521c	-0.039873227
135	0x3dc18da8	0.09450847
136	0x3d0496f0	0.032370508
137	0x3d88c96a	0.06679042
138	0x3e6943f4	0.22779828
139	0x3e4bfef2	0.19921473
140	0x3e1b2f81	0.1515484
141	0xbe762acf	-0.24039768
142	0x3e84e753	0.25957736
143	0x3e0b6b49	0.13615145
144	0xbbea8591	-0.0071570356
145	0x3dc3713e	0.095430836
146	0xbbe759b9	-0.0070602563
147	0x3dd41a38	0.10356563
148	0xbe21d896	-0.15805277
149	0x3c9b9de9	0.018996196
150	0x3e4d91fc	0.2007522
151	0x3ea456d2	0.3209749
152	0xbde793e1	-0.113075025
153	0x3e272193	0.16321401
154	0x3e44724a	0.19184223
155	0xbdb6ac91	-0.08919633
156	0x3e9bdd3c	0.30442226
157	0x3e30bcf5	0.17259581
158	0xbca930f6	-0.02065323
159	0x3e1f5159	0.15558375
160	0x3dc22d01	0.0948124
161	0x3e4670c6	0.19378957
162	0xbd24ec93	-0.040264677
163	0xbdb1545f	-0.08658671
164	0x3db69486	0.08915047
165	0xbec674f2	-0.38761097
166	0x3d1b504a	0.037918366
167	0x3e54bd8e	0.20775434
168	0xbe9d90dd	-0.30774584
169	0x3c68987d	0.014196512
170	0x3e24c84c	0.16092032
171	0x3e0df835	0.13864215
172	0xbd2e8004	-0.042602554
173	0xbf0683f3	-0.5254509
174	0xbd6c89ea	-0.057748713
175	0xbe9e3d0c	-0.3090595
176	0xbeeec642	-0.46635634
177	0xbe43e7d9	-0.19131412
178	0x3d6f3e3e	0.05840897
179	0xbc4428f6	-0.0119726565
180	0x3d7454c9	0.05965117
181	0xbd0804eb	-0.033207815
182	0x3d9ed13b	0.07754751
183	0xbdff6489	-0.124703474
184	0x3e154f6a	0.14581075
185	0x3e2835cc	0.16426772
186	0xbe16be5f	-0.14721058
187	0xbd50bb40	-0.050959826
188	0x3e0229ec	0.12711304
189	0xbedfef6d	-0.43737355
190	0xbe487ed7	-0.19579636
191	0x3d98438e	0.0743476
192	0xbe956ad0	-0.29183054
193	0xbe27e608	-0.16396344
194	0x3e4eb7db	0.20187323
195	0xbec3c17d	-0.38233557
196	0x3bce39d3	0.0062935143
197	0x3e1558df	0.14584683
198	0xbc99ad65	-0.018759439
199	0xbe0ac5ff	-0.13552092
200	0x3dea3572	0.11435975
201	0x3e148c4f	0.14506648
202	0x3de7e977	0.11323827
203	0xbea644df	-0.3247442
204	0xbe6b725b	-0.22992842
205	0x3d72be21	0.059263352
206	0x3dbe4230	0.09289968
207	0x3dcac0a0	0.099000216
208	0xbe245156	-0.16046652
209	0x3e023306	0.12714776
210	0xbd425758	-0.04744658
211	0xbe77f4ec	-0.24214524
212	0x3e593ab3	0.21213798
213	0xbc50d648	-0.012746401
214	0xbdc40293	-0.095708035
215	0x3e1e82f4	0.15479642
216	0xbe3096bd	-0.17245002
217	0xbecefe6b	-0.4042848
218	0x3c5e0c18	0.013552688
219	0xbe47b9e8	-0.19504511
220	0x3d84bdfa	0.06481548
221	0x3df431a8	0.11923534
222	0xbd7afe8b	-0.061277907
223	0x3e2b66b0	0.16738391
224	0x3d4d0114	0.050049856
225	0x3d218238	0.039430827
226	0xbe0c6f5b	-0.13714354
227	0xbec6f0f2	-0.38855702
228	0x3d803b13	0.062612675
229	0xbe8f5e8e	-0.28001827
230	0xbea528e2	-0.32257754
231	0xbe3f27ff	-0.18667601
232	0xbe11ac15	-0.142258
233	0x3e0c1756	0.13680777
234	0x3d726680	0.059179783
235	0xbe65317c	-0.22382158
236	0x3dfaeb0e	0.122518644
237	0x3d2111b4	0.039323524
238	0x3e526836	0.20547566
239	0x3e4dcefc	0.2009849
240	0x3d041b62	0.032252677
241	0x3e507113	0.20355634
242	0x3e181544	0.14851862
243	0xbc3e3197	-0.011608503
244	0xbe495a81	-0.19663431
245	0x3d09cb42	0.033641107
246	0xbe14230b	-0.14466493
247	0xbe39d62b	-0.18148105
248	0xbc2e466f	-0.01063691
249	0x3d78a5b5	0.060704906
250	0xbed2b882	-0.41156393
251	0xbe2bd81b	-0.16781656
252	0x3c8f8369	0.017518716
253	0xbf12ba4f	-0.57315534
254	0x3c7c2970	0.015390739
255	0xbe23ca34	-0.15995103

convt3.bias f4 [32]
0	0x3dd6bf20	0.10485673
1	0x3ccd3f29	0.025054531
2	0x3e0988bc	0.13431066
3	0x3d62feb7	0.055418696
4	0x3e4d1355	0.20026906
5	0x3e38d211	0.18048884
6	0x3d1229f0	0.035684526
7	0x3c992008	0.018692032
8	0x3d7c7708	0.061636955
9	0x3d25ce58	0.040479988
10	0x3d40ae30	0.04704112
11	0x3e7a06e2	0.24416688
12	0xbe993ed8	-0.29930758
13	0x3e8131aa	0.25233203
14	0x3dccd81b	0.10002156
15	0x3d7bf009	0.061508212
16	0x3dcadd94	0.09905544
17	0x3e03b768	0.12862933
18	0x3d45b079	0.048264
19	0x3c837210	0.0160456
20	0x3d82649e	0.063668475
21	0x3d9f864f	0.07789289
22	0xba67421c	-0.0008821802
23	0xbf3a2a57	-0.72720855
24	0x3d96777a	0.07347007
25	0xbc980634	-0.018557645
26	0xbca59ceb	-0.020216426
27	0x3cad4f85	0.021156082
28	0x3d293939	0.041314337
29	0x3e4e602e	0.20153877
30	0x3e64067d	0.222681
31	0x3e11a934	0.14224702

pos_output.weight f4 [1, 32, 2, 2]
0	0x3d644b61	0.05573595
1	0x3d9ba090	0.07598984
2	0x3d94498d	0.07240591
3	0x3dcc7b83	0.099844955
4	0x3dac5d34	0.084162146
5	0x3dae87f5	0.085220255
6	0x3d9ebdd1	0.07751048
7	0x3daef3ba	0.08542581
8	0x3df90851	0.12159789
9	0x3e001f21	0.12511875
10	0x3e0a6166	0.13513717
11	0x3dcd7db3	0.10033741
12	0x3d00cdaf	0.031446155
13	0x3d1b7fac	0.037963554
14	0xbd9b4706	-0.07581906
15	0xbd10abd9	-0.035320137
16	0xbc877165	-0.016533563
17	0xbdfe0300	-0.12402916
18	0xbd2e95fe	-0.042623512
19	0x3e1d5237	0.15363394
20	0x3d2099d2	0.039209194
21	0x3d421178	0.04737994
22	0x3d5407bc	0.05176519
23	0x3d65125c	0.055925712
24	0x3c5f9d75	0.0136483805
25	0x3c9bc58e	0.0190151
26	0x3d0fc932	0.035103984
27	0x3d3b11a6	0.045671128
28	0xbd215bbf	-0.039394137
29	0xbd4e11bc	-0.05030988
30	0xbd71938e	-0.05897861
31	0xbd7ac712	-0.061225004
32	0x3d0ff9a7	0.035150196
33	0x3ca41f93	0.020034587
34	0x3c0fe358	0.00878223
35	0x3d222c2b	0.039592903
36	0x3ce78f7a	0.028266657
37	0x3cac4c64	0.02103252
38	0x3d40031f	0.046877977
39	0x3cebe1a7	0.028794123
40	0x3d087f02	0.03332425
41	0xbe2d35c6	-0.16915044
42	0x3e236e8d	0.1596014
43	0xbd81f5b1	-0.0634569
44	0xbe2ea69a	-0.17055741
45	0x3d1b4311	0.037905756
46	0x3d12a9d6	0.0358065
47	0x3d31d0e9	0.043412123
48	0x3cba2a98	0.022725388
49	0x3d23f40b	0.04002766
50	0x3cfdfbd4	0.03100387
51	0x3d2f80b9	0.04284737
52	0x3da0ed8e	0.0785781
53	0xbdc338cd	-0.09532318
54	0xbe580198	-0.21094358
55	0xbdd57775	-0.10423175
56	0x3d109882	0.035301693
57	0x3d4994d8	0.049214214
58	0x3d51d5e3	0.05122937
59	0x3d23d4f9	0.03999803
60	0x3ca3b971	0.019985886
61	0xbcfe3151	-0.031029375
62	0x3d3e6e83	0.04649211
63	0x3e113252	0.14179352
64	0x3d135b04	0.03597547
65	0x3d5ece22	0.054395802
66	0x3d10797c	0.035272107
67	0x3d4e02ed	0.05029576
68	0x3dccb0b6	0.099946424
69	0x3e0afddf	0.13573407
70	0x3e156ca2	0.14592221
71	0x3e4239fc	0.18967432
72	0x3d1e1721	0.038596276
73	0x3cfc238c	0.030778669
74	0x3c474dfe	0.012164591
75	0x3c9d15c0	0.01917541
76	0xbdaa777d	-0.08323572
77	0x3c3e1a36	0.011602929
78	0x3ce91e1d	0.028456742
79	0xbe45cd69	-0.19316639
80	0x3e034c70	0.12822127
81	0x3e260a40	0.16214848
82	0x3d21cd35	0.03950234
83	0x3d857301	0.06516076
84	0x3e1efcf1	0.15526177
85	0x3d9843a2	0.07434775
86	0x3e111e58	0.14171731
87	0x3dc389fb	0.09547802
88	0xbce6edc5	-0.02818955
89	0xbd12df4f	-0.035857495
90	0x3e28ca41	0.16483404
91	0x3b207ddd	0.0024489083
92	0xbee24b50	-0.44198084
93	0xbec4ce59	-0.3843868
94	0xbedd3a57	-0.43208572
95	0xbec76056	-0.38940686
96	0x3e02948d	0.1275198
97	0x3e03f494	0.12886268
98	0x3e0bfe98	0.13671339
99	0x3d5c630b	0.053805392
100	0xbd24416a	-0.040101446
101	0xbe24cb52	-0.16093186
102	0x3d3d1804	0.04616548
103	0xbe135038	-0.1438607
104	0xbd0ff91e	-0.035149686
105	0xbc8d6a52	-0.017262612
106	0xbc926f57	-0.017875357
107	0x3aa284df	0.0012399218
108	0x3da5936f	0.08084761
109	0x3be80406	0.0070805578
110	0x3e051a4a	0.1299831
111	0xbe004f41	-0.12530233
112	0x3d5d3ac4	0.05401112
113	0x3d3831ff	0.044969555
114	0x3d89156d	0.0669354
115	0x3d49757a	0.0491843
116	0x3e17f688	0.14840138
117	0x3e344a31	0.17606427
118	0x3d6494e0	0.05580604
119	0xbe01109c	-0.12603992
120	0xbe4e868b	-0.20168512
121	0xbe146954	-0.14493304
122	0xbe14bf2c	-0.14526051
123	0xbe488bd2	-0.19584587
124	0x3d0274d6	0.031849705
125	0x3d6576fc	0.056021675
126	0x3cdda111	0.027054342
127	0x3cae4da7	0.021277262

cos_output.weight f4 [1, 32, 2, 2]
0	0x3cfdd899	0.03098707
1	0x3c42b207	0.011883265
2	0xbd5b27d0	-0.053504765
3	0xbced4c62	-0.028967086
4	0xbddf7fb5	-0.1091303
5	0xbde78271	-0.113041766
6	0xbdb2a612	-0.08723082
7	0xbdd542ca	-0.1041313
8	0xbd9ce15a	-0.0766017
9	0xbd80c2a4	-0.06287125
10	0xbdcaaf49	-0.09896714
11	0xbd2132cb	-0.03935508
12	0xbb8daf16	-0.0043238504
13	0x3cf9649e	0.030443486
14	0xbc11def6	-0.008903256
15	0x3ce435b5	0.02785764
16	0x3e532040	0.20617771
17	0xbc99e11d	-0.0187841
18	0x3db3ebfe	0.08785246
19	0x3d7673ad	0.06016891
20	0xbe2d4179	-0.16919507
21	0xbe42b429	-0.19014038
22	0xbe7e2667	-0.24819337
23	0xbe5bb015	-0.21453889
24	0xbe0624fe	-0.13100049
25	0xbdc88d19	-0.09792537
26	0xbe3ab708	-0.18233883
27	0xbe3152ee	-0.17316791
28	0xbde06b88	-0.1095801
29	0xbddee809	-0.10884101
30	0xbe0555a8	-0.13020957
31	0xbdde3941	-0.10850764
32	0xbdad8cf7	-0.084741525
33	0xbd927683	-0.071515106
34	0xbd823ade	-0.06358884
35	0xbdbc3e9d	-0.0919163
36	0xbbdbf18c	-0.0067121442
37	0x3cb7a34f	0.022416739
38	0x3d23bfce	0.03997784
39	0x3d6eda9b	0.058313947
40	0x3df31625	0.11869458
41	0x3e08fc7e	0.13377568
42	0xbe40de60	-0.1883483
43	0xbd662197	-0.056184378
44	0x3da4174c	0.08012256
45	0x3df81b2f	0.1211456
46	0x3e6ee76f	0.23330472
47	0x3e1accc1	0.1511717
48	0xbe150681	-0.14553262
49	0xbe06e16d	-0.1317193
50	0xbe16f3df	-0.14741467
51	0xbe12725d	-0.14301439
52	0xbdc5e610	-0.096630216
53	0x3e76d451	0.2410443
54	0x3e585818	0.21127355
55	0x3e421753	0.1895421
56	0xbe3719d1	-0.17880942
57	0xbe2d78fb	-0.16940682
58	0xbe151f54	-0.14562732
59	0xbe1c385c	-0.15255874
60	0xbbaf08de	-0.005341633
61	0x3ca588ef	0.020206897
62	0x3d6b2e69	0.057417307
63	0xbcae0aee	-0.021245446
64	0xbe2fbb76	-0.17161354
65	0xbe17d4a0	-0.14827204
66	0xbe10ff69	-0.14159931
67	0xbe0ae05e	-0.13562152
68	0x3c84d2e2	0.016213838
69	0xbcbf3e53	-0.023345148
70	0xbdda4f84	-0.10659698
71	0xbdc99d0e	-0.09844409
72	0xbe38273a	-0.17983714
73	0xbe4ce073	-0.20007496
74	0xbe021561	-0.12703468
75	0xbdfcc3cf	-0.12342035
76	0x3cef2be0	0.029195726
77	0x3deced16	0.11568658
78	0xbe424b55	-0.1897405
79	0x3d385d05	0.045010585
80	0xbdace7bd	-0.08442638
81	0xbe0bf0cc	-0.13666075
82	0x39a54d56	0.00031528872
83	0xbc3b824f	-0.011444642
84	0x3ae21011	0.001724722
85	0x3d41b81f	0.047294732
86	0xbb8f2204	-0.0043680687
87	0x3cf1dbd1	0.029523762
88	0x3e2b03f7	0.16700731
89	0x3c8f9a86	0.017529737
90	0xbe4a2d25	-0.19743784
91	0xbbf43d50	-0.007453598
92	0x3e9c3812	0.30511528
93	0x3e894217	0.26808235
94	0x3e772c87	0.2413808
95	0x3e8d47cc	0.2759384
96	0xbd4891ac	-0.04896705
97	0xbb3a6f3e	-0.0028447653
98	0xbb96aab0	-0.0045979843
99	0x3dd27e8d	0.10278044
100	0x3dbae894	0.09126392
101	0xbe00d25e	-0.12580249
102	0x3dc52112	0.09625448
103	0xbd8318a7	-0.064011864
104	0xbd8986e5	-0.06715182
105	0xbdcc3a30	-0.09972036
106	0xbd8e7a95	-0.069569744
107	0xbe09e653	-0.13466768
108	0x3d08849c	0.03332959
109	0x3d4a7938	0.04943201
110	0xbe3c8c39	-0.18412866
111	0x3dcebe2d	0.10094867
112	0xbdb94f1e	-0.090482935
113	0xbd95c797	-0.07313459
114	0xbdd1aa94	-0.10237613
115	0xbdcdbe71	-0.100460894
116	0x3d1581f0	0.03650087
117	0x3e0eed14	0.13957626
118	0x3ddad1dc	0.10684559
119	0x3e2872f1	0.16450097
120	0x3e753929	0.23947586
121	0x3e415a26	0.18882045
122	0x3e19b1c7	0.15009223
123	0x3e4dab80	0.20084953
124	0xbe35ae3e	-0.1774225
125	0xbe5b2044	-0.21399027
126	0xbe30ece7	-0.17277871
127	0xbe0739bd	-0.13205619
